prototyping/AntennaDesign/metaprototyping/Test3/s11_pinn_model.pt (torch, 404143 bytes, 7 tensors)

net.0.weight f4 [256, 4]
00000000: 40d2 99be 1e17 d9be 5aed 873e c475 bbbe
00000010: d625 ca3d ab80 423e 9d3b b9bd d8ef 4abf
00000020: 6ab4 b7be 0aa7 b6be 4cce 96be a076 abbd
00000030: 6f4c 0c3e 2756 9c3e e853 193e d762 16be
00000040: 205d b7be e2bc 413c 203e cbbe 6c06 c33e
00000050: 502c debd 8c00 45be e97f 9fbd 2d9c 173f
00000060: 76da 463e d814 3fbd 0786 823e aa23 8c3e
00000070: 1c9e 63bd ef66 353e 29cc 56be 1f48 58be
00000080: adc9 0f3e adcd 82be d7b7 e5bb 56c5 c43e
00000090: da8f 88be 6e02 b2be 1c88 2f3e 7018 d7be
000000a0: 330d 813e 59cd 0fbf 830b 77bd 26ee f03e
000000b0: e67a 93be eced b63e 43a9 383e 3a7c 923e
000000c0: 4c57 483e bbc3 67bd 4acd 41be 5499 ecbe
000000d0: 86f1 fcbe 688b 84be c886 153e 0820 d5be
000000e0: 0c77 513e 66f1 06bf 2eaf 023e 4c6e eb3d
000000f0: cf93 9e3d bee6 edbe e8a4 7a3e 5e9a ad3e
00000100: a20d 9a3e 1015 1b3d 88d2 c63e cf22 a13e
00000110: 48bc 9dbd 7032 61be 86fc b3be f203 bcbe
00000120: c260 86be b221 083a d151 1bbd ab58 b03e
00000130: b659 71bb 8844 9dbe 4c61 f8bd 6edb 253e
00000140: c14f 80be 481d 0a3d bd51 283d 33c2 663e
00000150: 2464 86be d874 02be 6462 6c3e 58f3 ce3d
00000160: b39f 60be 7a27 ae3e 8601 243f 0664 39be
00000170: 9e3e f7be 64a0 35be b077 eb3d a01a c03d
00000180: 5b9b b23e 90dc 97bb f2e7 983d 568a cbbe
00000190: 85c8 793e f6c7 723d a08e 19be 2ba2 a23e
000001a0: 72e8 e1be 4e90 aebe 8094 98bc 00f4 603e
000001b0: 0c0e 9b3e 14e3 c3bd 2631 0cbe 7f5b 21bf
000001c0: 78f8 01bc a9f2 6a3e f21e 97bd dc64 cbbe
000001d0: a909 c8be 70fa 63bd 37d3 ad3e a112 073f
000001e0: 2692 74bd 87b4 1f3e f835 6f3d 9de3 833b
000001f0: e56d 83be ff21 543e 9376 01be 724a 923e
00000200: 4322 f0be a5bd b03d 0bbc 16be dd5f 803e
00000210: 86d2 8e3e 0968 a6bd d048 973e 1ff2 833e
00000220: 66d8 373e 6054 56be c44b eabe ad80 19be
00000230: 572d 8f3e 5dfe 423e 94d4 d8be c570 28be
00000240: 9e46 9fbe a459 51be a0c4 83bc d011 75bd
00000250: 1f37 513e 5da7 6fbd 5ee6 cf3e eee8 463e
00000260: b1fe 80bd 0712 443d 5788 a2be 335a b53e
00000270: e9d3 50bd c192 f8be 4b34 9b3d 29bb 323f
00000280: 626a c2bb 9003 713e a256 c93e 2f7a 4fbe
00000290: f681 bebe 6070 673d 3c03 12be f095 26be
000002a0: 743a 32be c8ea e1bd a04a bbbe b065 6e3d
000002b0: 0c43 3dbe 4efd 363e 3eb8 0cbd 5b79 ab3e
000002c0: f6bf e9be 8ad1 d53e 0b6e 5f3e eade 8a3e
000002d0: e30d e63e fff9 88be 92c2 46be f386 80be
000002e0: c852 4d3e 4e32 c7be 903a 063e dee9 bdbe
000002f0: 20b6 ccbe be80 6b3e 048a 9cbd 9d52 84bd
00000300: 1ea1 b6be 7481 113e 2029 cabd 74b5 cabe
00000310: 641e 99be 42e6 acbd e4b8 cf3b f39c 063f
00000320: 017b e9bd f741 8c3e 7660 033f fa5f 0fbf
00000330: ed75 b3be 2fd1 883e 07d9 6dbe 5de0 97be
00000340: 101d 6b3d 804b cebe 484a bebd f0b7 cfbd
00000350: 1090 e6bd 2876 3abe 40ab c73d 3026 10be
00000360: 7acd 81be 2c84 b83e 9bd6 22bd 6914 21be
00000370: 8888 a0bd e691 6f3e 26be 72bd 9567 26bf
00000380: b84f bd3d 38e0 2e3e c91c 843e 7468 0dbf
00000390: e6d7 8abe acdb 90be 70bd 4fbd 4ac2 eebe
000003a0: 2b62 16be e510 823e 8a61 9bbe 9cd8 07bf
000003b0: f809 fbbe ccce 083e b43a 533e fef4 f9be
000003c0: a015 ba3e 2f2f 61be d7df cebd 941c 4ebc
000003d0: 415c 7ebe 474c b33e e904 95be 8311 4cbe
000003e0: 61bd 953e a2ff 21be 18ca 3b3d b037 ad3b
000003f0: c76a 133e ac7f e9bc bf8b 543e c157 893e
-0.3004322 -0.4240045 0.26548272 -0.36613286 0.09870498 0.18994395 -0.090445735 -0.7927222
-0.35879833 -0.35674316 -0.29454267 -0.08372235 0.13701032 0.3053448 0.14973414 -0.14686142
-0.35813236 0.011824818 -0.39695835 0.38090837 -0.10848296 -0.1923849 -0.07788069 0.5922268
0.19419274 -0.046650738 0.2549288 0.2737096 -0.055570707 0.17715047 -0.20976318 -0.21121262
0.14041777 -0.25547543 -0.007010441 0.38431805 -0.2667225 -0.3476748 0.17141765 -0.42010832
0.25205383 -0.5617271 -0.060313713 0.47056693 -0.28804702 0.35728395 0.18033318 0.28610402
0.19564551 -0.056583147 -0.18925968 -0.4621073 -0.49403018 -0.2588761 0.14602196 -0.41626
0.20455569 -0.52712095 0.12762138 0.11495647 0.07743036 -0.46465105 0.24476969 0.33906835
0.30088526 0.037861884 0.38832498 0.3147187 -0.077019274 -0.21991897 -0.35153598 -0.3672176
-0.26245695 0.0005193009 -0.037919823 0.34442648 -0.0036827154 -0.30716348 -0.12127933 0.16196987
-0.25060847 0.03371933 0.041093577 0.22535019 -0.26248276 -0.12739885 0.23084408 0.10105008
-0.2193592 0.34014493 0.64064825 -0.18104562 -0.4828996 -0.17736965 0.11497438 0.09380078
0.34884152 -0.0046344474 0.07466115 -0.3975398 0.24392898 0.05927273 -0.14995813 0.3176435
-0.44122654 -0.3409447 -0.018625498 0.21968079 0.30284154 -0.09564796 -0.13690624 -0.63030237
-0.007932775 0.2294413 -0.07378949 -0.39725387 -0.3906987 -0.055658758 0.33950207 0.527628
-0.05970969 0.1559621 0.058401078 0.0040249364 -0.2566978 0.20716093 -0.12642889 0.28572422
-0.4690114 0.08629922 -0.1472017 0.25073138 0.27894992 -0.08125312 0.2954774 0.2577066
0.17953643 -0.20930624 -0.4576093 -0.14990492 0.2796428 0.19042344 -0.42349684 -0.16449268
-0.31108564 -0.20444351 -0.016084969 -0.05983144 0.20431183 -0.05850922 0.40605444 0.19424793
-0.062985785 0.047868755 -0.31744644 0.3542038 -0.050983343 -0.48549464 0.075783335 0.69816834
-0.005933092 0.23536515 0.39323908 -0.20261453 -0.37208527 0.056503654 -0.14259046 -0.16268134
-0.1740511 -0.11031109 -0.36580372 0.058202446 -0.18482608 0.17870066 -0.034355395 0.33491024
-0.45654267 0.41761428 0.21819322 0.27123195 0.4493247 -0.26753232 -0.1941016 -0.25102958
0.2005111 -0.38905567 0.13108277 -0.3709249 -0.399827 0.2299833 -0.07643512 -0.0646107
-0.35669798 0.14209539 -0.09871125 -0.39591563 -0.29906 -0.08442356 0.0063391794 0.52583236
-0.11400414 0.27394077 0.5131906 -0.56005824 -0.35050908 0.26722094 -0.2322732 -0.29663363
0.057400763 -0.40291977 -0.09291512 -0.10142505 -0.112579465 -0.18209136 0.0974946 -0.14077067
-0.2535208 0.3603834 -0.039755445 -0.15730442 -0.07838541 0.233955 -0.05926337 -0.65001804
0.09243721 0.1707772 0.2580321 -0.5523751 -0.27117842 -0.28292596 -0.05071777 -0.46632606
-0.14685886 0.25403515 -0.30347854 -0.53064895 -0.49031043 0.13360137 0.20627862 -0.48819727
0.36344624 -0.21990655 -0.10101288 -0.012580056 -0.2483988 0.35019132 -0.2910531 -0.19928555
0.29246047 -0.15820172 0.04584703 0.0052861795 0.14396201 -0.028503262 0.20756434 0.26824763

net.0.bias f4 [256]
00000000: ec93 b7be 8525 2abf 8c4b 633e 8aed 593f
00000010: 529f 9ebe 3d82 e43e 502d 86bf c299 a9bf
00000020: 5626 90be 8019 cc3e c76a bfbe 26c4 82be
00000030: ec49 9ebf acaf 0bbe 62f8 ab3f a93d 8b3f
00000040: 16eb aebf c8a7 6a3e 9487 c73e 38ed 28bb
00000050: 673e ca3f 8082 cfbd 5b62 4fbf e0ed f33e
00000060: f2dd 473f 9e2f 5cbf a868 cb3d f42b 4d3e
00000070: c4f3 863f dbbb b63f 4225 57bf ccd5 c5be
00000080: c2ab a43f c73e 90bf 1298 7cbf 613e 92bf
00000090: 4cee b43e 07eb a43e 36e1 39bf c9a4 703f
000000a0: abd6 8b3f 3413 00be 3c39 853e 4dc5 31bf
000000b0: 9689 86bf 9398 73bf 08b4 cd3e 99d9 d93f
000000c0: dc55 5d3e 98a9 d73e 779f 24bf 18d0 5abf
000000d0: ea03 813e c875 d63e 5851 863f 8193 ae3e
000000e0: 631b cabe a240 e43e 276c fd3e 2ce0 c4be
000000f0: a36e 02bf 6f4f 9fbf 2965 953f 7074 8dbf
00000100: 84ce ab3f e430 543e 7fe0 953f e9c9 8fbf
00000110: 69fd ec3e 2ad2 ae3f d2c7 a0bf a731 b0bf
00000120: a22e 623f 585f 703e fc67 3cbf f014 d03d
00000130: aa38 ccbe 34f6 3e3d 7ca6 93bf 6004 44bf
00000140: fab8 e3be d75f 773f b5d1 703f 401c fa3e
00000150: e0d0 a43d 928c a23e 1a21 5abe c002 fcbe
00000160: 31d0 83bf 187c 59bf 6046 2cbf b2ae 893f
00000170: 342d 92bf c98f 3cbd a55c 87be c45a 9abe
00000180: fa41 903e 7e30 983f a4f4 3abe 503e 693f
00000190: 3590 9a3f 4e60 fbbe b6ae c8be 5822 f7bd
000001a0: f83c 42bd 789f 403e ace4 863e c899 263e
000001b0: 4d6c 863f 19f2 93bf 5eca 25bf e8db 213f
000001c0: 6bf4 c03f 5d7a 8bbf c0be ce3e ec63 d43e
000001d0: d899 b1bf 8011 98bd 79f7 a13f 84ed 0bbf
000001e0: b46a 3cbf b3e3 7bbf f2d9 4ebf f0b8 11bd
000001f0: 6ce3 343e 1796 9ebf ce4b 8cbf 209b 40bd
00000200: 9164 503f 14d9 3fbf fffb 683f 3065 00be
00000210: 90a8 cf3d 7740 00c0 ac25 293e e2a6 973e
00000220: c8af 9fbf 40b9 e13d 758a 6ebe 2686 803f
00000230: 27c5 75bf 605d f93e 8c9e 80bf ee7e bb3f
00000240: a04b 473d 4607 9dbe 76c2 eabe 1a7b 893e
00000250: b0b8 a5bf 4a9b 86bf e763 a03f bc6b 413e
00000260: 78c7 d83e 8235 583f d6b5 b43f 9a6b 5dbf
00000270: 391e 843e caf0 81be 0260 ecbe eee7 db3f
00000280: df9b 733e 58de 29be a5e2 a23f d276 b03e
00000290: 60c5 34be 059d ed3e 8c4b 79be 2a15 883f
000002a0: dbff 903f df9f 27bf 7373 703f e87e 0a3f
000002b0: 5309 473f 105f cbbd fa84 82be 7775 893f
000002c0: 3358 853f 20a2 eebd 6277 f03e d08b 40be
000002d0: 9293 33be 8ca3 6fbf 5790 433f b311 89bf
000002e0: 4c27 afbe b4ed 9a3f 8043 15be 3503 9d3e
000002f0: 9dde 873f 3d8f 5dbf add3 3dbf 70ab a7be
00000300: faea 8f3e 9ab0 423f daf3 a5be 1e04 c3bf
00000310: 3553 f73e 72c9 87bf da99 c83e ee79 323f
00000320: 8b76 563f 38a9 bdbd 5495 723e 8c11 04be
00000330: 7235 33be 9d24 fabe 19fb cc3d e8ed c2be
00000340: 0153 f5be 764d bd3e a848 72bf f6cb 953f
00000350: 8853 44bf d1ce 9a3f 3aad 813f 32bb bfbe
00000360: 7f86 aebf 98c4 cabd 89ab 8cbf 44a3 78be
00000370: 00b9 80bf 8804 4c3f d0d4 923e 145a 3d3e
00000380: 42f9 20bf 8be9 93bf 3382 3c3f 14f0 9cbf
00000390: 039c 78be 2449 75be 36c7 5cbf 74bc b53f
000003a0: 9a03 613f 7473 e93e 2daf 91bf c0bd cebe
000003b0: facd 97be c49c a03e cbb3 15bf 994d 913f
000003c0: ecf3 89bf 43ba cd3e 4d0a 3abf 02ab 50bf
000003d0: 6c17 b13f c4c1 99be c7bd 643f a66b 81bf
000003e0: 53fd 1ebf e8c3 af3d ae3c d53e 4094 45be
000003f0: 5087 dbbd bb34 13bf ba5e e8be a0ec b3bf
-0.35855043 -0.664635 0.22196788 0.8512808 -0.30980927 0.44630614 -1.0482578 -1.3250048
-0.28154248 0.39863205 -0.37386152 -0.25540274 -1.2366309 -0.13641232 1.3435175 1.0878192
-1.3665493 0.22915566 0.38970625 -0.002577616 1.5800294 -0.10132313 -0.81009454 0.47642422
0.78073037 -0.8601016 0.09932071 0.20036298 1.0543141 1.4276079 -0.84041226 -0.38639677
1.2864916 -1.1269158 -0.9866954 -1.1425287 0.35338056 0.32210562 -0.7260927 0.9400144
1.0924886 -0.12507325 0.2602023 -0.6944168 -1.0510738 -0.95154685 0.40176415 1.701953
0.21614784 0.42121577 -0.64305824 -0.85473776 0.251983 0.41886735 1.0493574 0.34096912
-0.3947402 0.4458056 0.49496576 -0.3845228 -0.5095007 -1.2446116 1.1671497 -1.1051159
1.3422399 0.20721775 1.1709136 -1.1233493 0.46287087 1.3657887 -1.256098 -1.3765153
0.88352406 0.23473871 -0.7359617 0.101602435 -0.3988698 0.046621516 -1.1535182 -0.76569176
-0.44477063 0.96630615 0.9406999 0.48849678 0.08047652 0.31747872 -0.2130169 -0.49220848
-1.029791 -0.8495498 -0.67294884 1.0756438 -1.1420045 -0.04603556 -0.2643787 -0.30147374
0.28175336 1.1889799 -0.18257385 0.91110706 1.2075258 -0.49096912 -0.39195794 -0.120670974
-0.047421426 0.18810833 0.26346338 0.162696 1.0501801 -1.1558257 -0.6476191 0.63226175
1.507459 -1.0896717 0.40379906 0.41482484 -1.3875074 -0.07425213 1.2653648 -0.54659295
-0.73600316 -0.98394316 -0.8080131 -0.03557676 0.1766488 -1.2389554 -1.0960634 -0.04702294
0.8140345 -0.7494061 0.91009516 -0.125386 0.101395726 -2.0039346 0.16518277 0.2961951
-1.2475519 0.11021662 -0.23295005 1.0040939 -0.96003956 0.48704052 -1.0048385 1.4648111
0.048656106 -0.30669612 -0.45851487 0.26851732 -1.2946987 -1.051614 1.2530488 0.18888754
0.42339683 0.84456646 1.4117992 -0.8649231 0.25804308 -0.2537902 -0.46166998 1.7180154
0.23789929 -0.16588724 1.2725416 0.34465653 -0.17653418 0.4640886 -0.24345225 1.0631459
1.1328081 -0.6547832 0.9392616 0.54099894 0.777486 -0.09930241 -0.25492078 1.0738972
1.0417541 -0.11652017 0.46966082 -0.18803334 -0.17536762 -0.9360893 0.7639212 -1.0708526
-0.3420967 1.2103791 -0.1457653 0.3066651 1.0614811 -0.8654669 -0.74151117 -0.32747984
0.2810896 0.7605072 -0.32412606 -1.5235631 0.4830567 -1.0608351 0.3917988 0.697173
0.8377463 -0.092607915 0.23689777 -0.12897319 -0.17500857 -0.4885606 0.100088306 -0.38072133
-0.4791489 0.3697316 -0.94642115 1.1702869 -0.7668996 1.2094365 1.013099 -0.37447506
-1.3634795 -0.099007785 -1.0989848 -0.24281031 -1.0056458 0.79694414 0.28677988 0.18491393
-0.6288034 -1.1555647 0.7363617 -1.2260766 -0.24278264 -0.23953682 -0.8624147 1.4198136
0.8789612 0.45595896 -1.1381584 -0.40379143 -0.29649335 0.31369603 -0.5847747 1.1351806
-1.0777564 0.4018117 -0.7267197 -0.8151094 1.3835273 -0.30030644 0.8935208 -1.0110977
-0.6210529 0.08582288 0.41647857 -0.19294834 -0.10719168 -0.57502335 -0.4538477 -1.4056587

net.2.weight f4 [256, 256]
00000000: e0ba 67bd d4cd a43c 78e6 263d 6c7c e4bc
00000010: 402d 4b3b b458 823c 2a2c 0dbd 88a8 edbc
00000020: 6629 78bd 2cb6 7fbd a015 be3b 50e0 ef3b
00000030: 80b7 e83c 9aa3 68bd c4e3 2abd a279 26bd
00000040: aefb 653d f673 463d fc9d 60bd c8af 32bd
00000050: 702d d1bc 9044 eabb 8863 0dbd dece 5fbd
00000060: 401e 3ebd 20ad 17bd f843 6c3d 5aa3 28bd
00000070: 302e 35bc f0ab 323d c039 403b d0e2 71bd
00000080: 56f8 7abd 7cfe e3bc 3ce5 45bd 205f 7b3c
00000090: 5817 c53c 04c2 58bd fc7c 723d 6444 63bd
000000a0: 3ead 75bd e05a c9bc c0ed 5c3c c0b6 c3bc
000000b0: 601f 6cbd 56f3 7bbd f6c8 283d ec63 8bbc
000000c0: 4892 52bd 70f6 853c 54a4 d83c a2a0 4ebd
000000d0: b6c0 6dbd b8f6 98bc b6d4 0b3d 647c 52bd
000000e0: be99 04bd 42d3 423d 48be 9cbc 00a4 b53b
000000f0: 20aa c8bb 608e 493b 90fe 04bd a6d3 69bd
00000100: b447 b5bc 2a49 09bd 1ac7 453d e8f6 22bc
00000110: 00e9 f6b9 1c60 66bd 6899 783c a029 ea3b
00000120: 146d 5d3d 6ea8 423d f0a5 c83c 469e 48bd
00000130: e43d fdbc 82c7 273d 009f b539 106b d3bc
00000140: 86da 1cbd 2622 67bd fca1 9f3c 54dc b03c
00000150: 8e58 363d 981a 6dbd 60fb 8b3b 38f6 25bc
00000160: a08b fcbc 2e76 5fbd 16f3 073d 562b 4d3d
00000170: 98f6 75bd 7c98 a03c aa0b 01bd 3479 12bd
00000180: 3044 b4bc ac82 debc 901c 323d e827 fcbc
00000190: ecdb 743d 20c5 3cbc 2483 943c b06c da3c
000001a0: 7896 7c3c fa41 2c3d 8cd1 d53c f458 993c
000001b0: 7cf2 263d c6bb 4dbd e28b 28bd 0848 13bc
000001c0: b08e c0bc 7270 59bd 2a29 533d 0054 643d
000001d0: 348f 853c 9cc6 6f3d d809 fe3c b2e6 5fbd
000001e0: 42ba 51bd c06e 733c 1623 303d 5424 68bd
000001f0: d2c8 3e3d 006c cf38 b05a bb3c 30bb 1d3c
00000200: 58e9 db3c 9c30 2e3d c4e4 adbc 70fd b33b
00000210: a0ea ccbc 4c84 6e3d b0d2 e03b 0ed1 59bd
00000220: 7e86 08bd 881c d13c d653 7e3d cc3b 433d
00000230: 8085 523a 20ef 03bd 3037 d43b 2216 08bd
00000240: a484 263d 649b d0bc 8049 fdbb 4035 dd3c
00000250: 34ee 3dbd 90df abbc b0f9 053c 0049 79bc
00000260: bc60 22bd 60cf 39bd 3450 2cbd 703f 863b
00000270: 20dc 683d 88f6 26bc a87f a93c 16f4 653d
00000280: a09c d33c d22c 583d 7c9c 193d cea0 423d
00000290: 346a 343d d0ce cdbc 76d6 1abd 2e23 4d3d
000002a0: 7ce9 f4bc 3eb3 49bd 2cf2 7f3d da5d 75bd
000002b0: 08b9 91bc 9c0a 0fbd 2c0c 6dbd f28c 70bd
000002c0: b624 6fbd 9421 c03c 1c6d 0bbd 94b9 0c3d
000002d0: 5ee2 13bd e084 c83b 4cd9 a6bc 4e1b 35bd
000002e0: 663d 70bd 6294 663d 7c91 483d 9205 173d
000002f0: 8a9b 11bd 9094 acbc 4214 11bd c65f 22bd
00000300: a0ed 303b 08f4 b9bc 2ec4 7ebd 08a5 c1bc
00000310: dca3 953c 205e 3bbd be01 553d a095 993c
00000320: 869c 4abd 9c30 37bd a210 2dbd 6637 41bd
00000330: 408c c83c 200a 073d 50f4 903b 4826 28bc
00000340: 8a86 4cbd 380b dd3c 9c78 58bd 20ea a23b
00000350: 6044 e1bc bea2 61bd 00d0 d5ba 0017 343a
00000360: c4f8 c23c 9ced 6dbd 2cfb f3bc 2853 b13c
00000370: 1836 013c 20a7 73bd 88f2 103c 68fe adbc
00000380: 9a9f 1a3d acd5 acbc 7037 ffbc 90b4 4cbc
00000390: 64a4 aebc 94d6 553d 18a4 7ebc 5c03 eb3c
000003a0: 38eb aabc a8fc 553c f273 473d 6a79 38bd
000003b0: 4828 cd3c b0e4 f8bb 5069 d6bc 2205 2dbd
000003c0: 0a84 2f3d dc13 7f3d 5af7 32bd 8096 df3a
000003d0: 7423 48bd c285 48bd 8a61 3a3d 6080 e4bb
000003e0: 2076 adbc 8ec0 6f3d 3aae 773d ec71 28bd
000003f0: 5032 52bc 8e05 433d 68e2 5cbd 0e95 35bd
-0.056574702 0.020117678 0.040747136 -0.02789136 0.0031002313 0.015911438 -0.034465946 -0.029011026
-0.060586356 -0.062429592 0.0058009177 0.0073204413 0.028407812 -0.056796648 -0.04172112 -0.04064334
0.056148224 0.048450433 -0.054838166 -0.04362467 -0.025534362 -0.0071492866 -0.03451875 -0.054640643
-0.046415567 -0.03703034 0.057682008 -0.04117141 -0.011058375 0.043621004 0.0029331297 -0.059054196
-0.061271988 -0.027831309 -0.048314318 0.015342504 0.024058983 -0.052919403 0.059201226 -0.055485144
-0.05997967 -0.024579465 0.013484418 -0.023890853 -0.05764711 -0.06151136 0.041207276 -0.01701542
-0.051409036 0.016352862 0.026445545 -0.05044616 -0.05804511 -0.018672332 0.034138404 -0.05138816
-0.032373182 0.047564752 -0.019133702 0.005543232 -0.006123796 0.0030755028 -0.032469332 -0.05708661
-0.022128917 -0.03351704 0.04828558 -0.009946562 -0.00047094375 -0.056244 0.015173294 0.0071460754
0.054059103 0.04752391 0.024493188 -0.048979066 -0.0309133 0.04096175 0.00034641474 -0.025807887
-0.038294338 -0.05642905 0.01948642 0.021589436 0.044518046 -0.05788669 0.0042719096 -0.010129504
-0.030828297 -0.054556064 0.03319081 0.050090156 -0.060049623 0.01960396 -0.031505264 -0.03576012
-0.02200517 -0.027161919 0.04348427 -0.030780748 0.059780046 -0.011521608 0.018128939 0.026663154
0.015416734 0.042055108 0.026100896 0.018719174 0.040758595 -0.050227903 -0.041149028 -0.008989342
-0.023505539 -0.05308575 0.05155293 0.05574417 0.016303636 0.058539018 0.031010553 -0.054663368
-0.05120302 0.014857948 0.04300221 -0.05667527 0.046578236 9.890646e-05 0.022870392 0.0096271485
0.026844665 0.042526826 -0.021227248 0.0054928586 -0.025014222 0.058231637 0.0068610534 -0.053177886
-0.033331387 0.0255263 0.06209167 0.04766445 0.00080307573 -0.03221047 0.0064763054 -0.033224232
0.04065384 -0.025464721 -0.007729709 0.02700293 -0.046369746 -0.020980626 0.008177206 -0.015215158
-0.039643034 -0.045363784 -0.042068675 0.004096918 0.056850553 -0.010190614 0.020690754 0.05614098
0.02583152 0.05277712 0.03750275 0.047516637 0.044046596 -0.02512303 -0.037802182 0.050082378
-0.02989649 -0.049243204 0.062486812 -0.059903957 -0.017788425 -0.034922227 -0.057872936 -0.058728166
-0.05838462 0.023453511 -0.0340396 0.03435667 -0.036104552 0.0061193556 -0.020367287 -0.044215493
-0.058652304 0.056293853 0.04896687 0.036870547 -0.035548724 -0.021066934 -0.03541971 -0.039642118
0.0026997104 -0.022699371 -0.06219881 -0.023638263 0.01826661 -0.04574406 0.052003615 0.018748105
-0.04946568 -0.044724092 -0.04225219 -0.047171973 0.024480939 0.03296864 0.0044236556 -0.010263033
-0.049932994 0.026982889 -0.052849397 0.0049717575 -0.027498424 -0.055086844 -0.0016312599 0.00068698823
0.023800261 -0.05808793 -0.029782854 0.021646097 0.007886432 -0.059485555 0.008846886 -0.021239474
0.037749864 -0.02109798 -0.031154364 -0.012494221 -0.021318622 0.05220659 -0.015542053 0.028688125
-0.020864114 0.013060726 0.04869456 -0.045037664 0.025043622 -0.007595621 -0.026173264 -0.042241223
0.04285053 0.0622748 -0.043692924 0.0017058402 -0.048861936 -0.048955686 0.045503177 -0.0069733113
-0.02117449 0.058533244 0.06046889 -0.04112427 -0.012829378 0.04761272 -0.053926855 -0.044331603

net.2.bias f4 [256]
00000000: 78fe 7e3d 7431 bebc 486a b43e c700 613d
00000010: 2fef 303f 487f 73bc 9dcd 353c e02d ffbc
00000020: 964e 183c 9633 153f 4d68 d3bc 2429 3f3f
00000030: 2a50 40bc 8b15 4ebd 626d 233f 4c36 613f
00000040: be7b 24bc 980c b5be d7dd 063d d1a4 a43e
00000050: 97c0 bfbc 7276 4cb9 15f3 1ebd 67f9 2b3d
00000060: a504 54bd 5866 7ebd 4836 2b3c 3f18 483d
00000070: 682f c1bc 1e31 1dbd 4e69 0abd 8a33 533d
00000080: 6ab3 183f 82c9 24bf 7dfb 42bc 0c20 03bf
00000090: 2ef6 c73b 469e 083f 4235 283f a96c 0dbd
000000a0: 0469 58bd d862 d43c eae6 33bc 2aa4 0d3f
000000b0: bde6 573f 32a3 b3bc e8da 78bd e19e d6bc
000000c0: c610 c3bd 5254 adba 3192 a0bd 3f58 77bf
000000d0: 9409 debc ab37 423c d720 82bc fd11 013f
000000e0: 300a 563d a132 03bd 4e6d f43c 1dcb eb38
000000f0: 72b5 2d3d c82b e23c e669 46bf 8044 57bd
00000100: 32cb 9dbd 7fc0 c0bc 5a82 3fbd 9a3f 2d3b
00000110: c06d b1bc 62cd 54bc eb1e efbe 08f9 293d
00000120: f9e2 b9bc cef4 b7ba c085 24bd a6d7 b13b
00000130: 2b01 50bd fe41 02bf ca4c 07bd cef3 6dbd
00000140: 3324 babc 6b1a 74bd 9012 65bc 6301 e13e
00000150: 9e29 1abf 95b1 c83b 18ab 033d a62c 113d
00000160: f870 283e 0c70 3c3c 60fd 103f c047 a93a
00000170: d766 1cbf f210 aabe c8a6 15bd d999 debe
00000180: 4e91 a63d 3fc5 e9bd 24d2 293f 69cf 93be
00000190: 26e0 be3c 9643 44bc 3dbe 813e a6e7 afbe
000001a0: 6bf3 aabd 5399 bd3e a2fd 50bd 956a ab3d
000001b0: f6dd 983e 159b 2c3e e1a6 333b 7915 c7be
000001c0: ec6f 463d 76cd 2ebb af8e 3d3e 224b 7d3c
000001d0: 762e 74bd b7e1 3bbd d86a 7abd 8907 37be
000001e0: 352c 94bc 4d53 113d 3354 273f 42ff 853c
000001f0: b674 28bf 007c 30ba 269a 80bd 7ac7 1bbd
00000200: d630 783e 6bc2 f23e 54f6 0cbd ebd3 683d
00000210: b9fe 823c 8d75 693d 2052 b83c 31e8 18bd
00000220: 4067 0ebf 7cd0 ad3c 149c cd3c 435a 3f3e
00000230: 2b6a b43e e754 57bd 34ed d4bc 10e4 4d3d
00000240: 2aa7 c73e 856e 86bc 30f9 91bc 898c d43e
00000250: b490 a43c 2612 e33e 9bbe 0d3f 917b ec3e
00000260: be74 0c3d 845c a6bc 6784 f53e c340 cbbc
00000270: cf12 96bd 1af8 0bbd 09b0 f7bc 8214 4d3d
00000280: c9bb 22bf 18cb 48bc c512 71bd 0c29 3abd
00000290: 9b92 31bd 12c3 14bd 40bf cc3a 6806 7abd
000002a0: 2af9 a0be 0f8a f53e c508 133b 1892 24bd
000002b0: 1d1c ae3c 9b26 ce3c 283b abbc eb33 2fbd
000002c0: f9ee 28be df77 1dbd 3cd2 6f3e 5472 5bbf
000002d0: 1077 fb3b 6c56 c6bd 7c97 88bd 933c fbbc
000002e0: 48b0 79bd 71d2 3cbd 43e5 a43f 85d0 33bd
000002f0: 83d7 0fbd 4988 37bd 64aa 8fbc 5dfe c8be
00000300: eaa9 54bd a2d6 94bd 6cd7 0e3f f0f3 f7bd
00000310: be81 2c3f a5df 30bc a353 b7be f1a6 3abd
00000320: a83a 95bc 0985 263d 8ca8 343d 9504 49bf
00000330: bd13 893a b48d 9e3c d2ff 8fbe 803a 4fbb
00000340: 24ce 043f 76d5 59bd bdc0 1fbf 0c3a e4bc
00000350: 6ab2 f2bc cc1c 383f d83b 493d 3f79 423e
00000360: 8e15 0cbd 6fff b23e 41ac 3fbb b47f 1abd
00000370: a45a a8bc 1cd6 093f 5d20 6dbd 00cf 013a
00000380: 80ff 53bd 0ed5 b93b 5d0c 60bd 2ebb cc3e
00000390: c7be 103d dfb5 053f 3cd3 41bf d916 d13c
000003a0: b23a 0a3f 15f4 18bd e8d3 f5bc e18d eabc
000003b0: 41dc 423c a809 74bc f838 04bd 6862 373d
000003c0: 15aa be3c 98c4 6b3d f97f 90bd 32ab 263f
000003d0: ca86 6fbc 5072 f5bc e68f 3dbf fcf3 4b3d
000003e0: 3d38 2abe ca8f 093d 0dfc 2abe 52a9 0e3f
000003f0: d857 26bf 1ad1 fdbe b6c9 533c 54f7 a53c
0.0622544 -0.02321694 0.35237336 0.054932382 0.69114965 -0.014861889 0.011096385 -0.031149805
0.00929608 0.5828184 -0.02580657 0.7467215 -0.011737863 -0.050313514 0.6383878 0.87973475
-0.010039268 -0.3536117 0.032926407 0.32156995 -0.023407264 -0.0001949908 -0.03880604 0.041985895
-0.051762242 -0.06210932 0.010449953 0.048851248 -0.023582175 -0.03837692 -0.033791833 0.051562823
0.59648764 -0.64369977 -0.01190078 -0.51220775 0.006102345 0.53366506 0.65706265 -0.034527455
-0.052834526 0.025926039 -0.010980347 0.5532862 0.84336454 -0.021928404 -0.06075564 -0.026198806
-0.09524684 -0.0013223982 -0.07840384 -0.9661903 -0.027104177 0.011854093 -0.0158848 0.5041807
0.05225581 -0.032030705 0.029837277 0.00011243506 0.042409368 0.027608767 -0.7750534 -0.05255556
-0.07704772 -0.02352929 -0.046755172 0.0026435615 -0.021658778 -0.01298842 -0.46703276 0.04149726
-0.022691237 -0.001403475 -0.040166616 0.0054273186 -0.050782364 -0.50881946 -0.033032216 -0.05809384
-0.02272234 -0.059595507 -0.013981476 0.4394637 -0.6021975 0.006124685 0.03214559 0.03544297
0.16449344 0.011501323 0.5663662 0.001291506 -0.6109442 -0.33216053 -0.036536008 -0.4347675
0.081331834 -0.11414575 0.66336274 -0.2886918 0.023300242 -0.011979004 0.25340453 -0.3435642
-0.083472095 0.3703104 -0.051023133 0.08369938 0.29856843 0.16856034 0.00274127 -0.3888357
0.04844658 -0.0026672757 0.1851146 0.015459808 -0.05961462 -0.045869555 -0.06113705 -0.17873968
-0.018087486 0.035479832 0.6536285 0.016357068 -0.65803087 -0.00067323446 -0.062794015 -0.038032033
0.2423738 0.47413954 -0.034414604 0.056842726 0.015990602 0.05699687 0.022500098 -0.03733081
-0.55626297 0.021217577 0.025098838 0.18686776 0.3523725 -0.052571204 -0.025992014 0.050266325
0.38994724 -0.016410122 -0.017819017 0.4151347 0.020088531 0.44349784 0.55368966 0.46188024
0.03429102 -0.020307787 0.47952577 -0.024811154 -0.07327806 -0.034172155 -0.030235307 0.050068386
-0.6356779 -0.012255453 -0.05885579 -0.0454493 -0.043352704 -0.036318846 0.0015620962 -0.061041266
-0.31440097 0.47956893 0.0022435647 -0.04017839 0.02125364 0.025164893 -0.020902231 -0.042774122
-0.16497411 -0.038444396 0.23420042 -0.85721326 0.0076741055 -0.096844524 -0.06669518 -0.030668532
-0.06095913 -0.04609913 1.2882465 -0.04390003 -0.035117637 -0.044807706 -0.017537303 -0.39256564
-0.051919855 -0.072675005 0.5579746 -0.12107074 0.6738547 -0.0107955085 -0.35805997 -0.045569364
-0.018216446 0.040654216 0.04410605 -0.78522617 0.0010458153 0.019354679 -0.28124863 -0.0031620562
0.51877046 -0.053182088 -0.6240347 -0.02785971 -0.02962609 0.7191894 0.049129337 0.18991564
-0.034200244 0.34960505 -0.0029246958 -0.037719443 -0.020551033 0.5384233 -0.057892192 0.0004951805
-0.051757336 0.00567115 -0.05469929 0.39986557 0.03533819 0.5223064 -0.75712943 0.02552359
0.5399581 -0.03734215 -0.030008271 -0.028632106 0.011893333 -0.01489488 -0.032280892 0.044771582
0.02327446 0.057560533 -0.07055659 0.65104973 -0.014619539 -0.029961735 -0.74047697 0.04979323
-0.16623016 0.033584394 -0.16697712 0.5572711 -0.6497779 -0.49573594 0.01292651 0.020259537

net.4.weight f4 [128, 256]
00000000: f20b 133d 2a84 203d a73e 5ebd f653 0b3d
00000010: 7297 683c fe9e 79bd 3029 d4bb 8634 6abd
00000020: 1cf6 e4bc dfc8 86bd 1067 93bc 720a 12bd
00000030: 00d2 793c c025 5dbd 237f 3a3d a21d 9ebd
00000040: ae15 723d 30e1 b4bc c816 acbc e38c 66bc
00000050: cef9 593d 68e9 a43c 62aa 563d 4645 47bd
00000060: 9fc4 d93c 30b6 ff3b a455 193d 38cd 463d
00000070: 8c9c 66bd 683e c33c b0fb abbc ac6d 93bc
00000080: 97ce 5abd 754a a0bd 30b3 a93c 08b4 2b3d
00000090: 82ca 323d 8cff c03c 8ba9 70bd 20a3 bb3c
000000a0: 0afb 2ebd 76d4 56bd be5f 553d 7301 ed39
000000b0: 2689 82bd 6f7e 83bd 004e 6fb9 5a0f 753d
000000c0: cfef 1b3d 8a0c 23bd 9062 64bc 700d 0e3d
000000d0: c8d3 7b3c 2ec2 29bd 406b 403c 460b cd3c
000000e0: 1ada 1cbd 1c90 d03c c8b5 a73c 08b7 5bbc
000000f0: 48ec c7bc 30dd aabc aa3c 09bd 005b 89ba
00000100: 6afa 313d c0df c2bb 3029 8e3c 0008 2f3b
00000110: 5b29 5abc f852 a33c 57a9 98bd 3cce a7bc
00000120: 7851 323c e029 69bb 4858 3b3d 8e73 133d
00000130: 7ed4 30bd 4af4 61bd 6cda 75bd 6c32 99bc
00000140: e0fa 4abd 9086 d3bb 562e 1bbd 2256 e53c
00000150: 6372 7e3b 22fc 78bd e045 dabc 4408 36bd
00000160: fb0c 9bbd e4e8 54bd 5f50 c33c b86b febc
00000170: 2a51 35bd 3ce5 21bd 4001 cfbb 2081 683d
00000180: 62dc 233d 04f1 abba 44cd 72bd c50f a2bd
00000190: b8db bfbc 4897 6dbd ed05 323d ea42 0ebd
000001a0: ec9c bb3c 0e68 5cbd 08e2 32bd a850 e0bc
000001b0: 3b79 92bd b4c0 ff3c b04b 85bc d630 94bd
000001c0: bc4a 1ebd 35e0 a4bd f576 7cbd b4bc db3c
000001d0: d8d4 28bd b211 683d 2092 d03c ed56 13bd
000001e0: 2aab 233d eee1 86bc e41a 753c 3a6e 7cbd
000001f0: 5ffc 25bd 281c 2abc 780d 66bd 76bf 32bd
00000200: ce76 2dbd 539f e03c 209b 193b ca39 323d
00000210: 8028 7cbc 009c 46bb c0c0 0f3d d5aa 8bbc
00000220: 5cb6 883c 34c8 04bd 7cf3 bfbc 07b6 3dbd
00000230: a8bf 06bc d843 2dbd 348a 3cbd ba97 613d
00000240: 8f90 083d dc5b 75bd c023 4abb 2398 b03b
00000250: 108a e33b 1498 d93c 6859 96bd 3602 1e3c
00000260: 007d 303c 0452 33bd a085 efbb 8468 153d
00000270: 00b4 e13b dc02 8fbc 5466 b3bc 50ac 5a3c
00000280: 5fb6 d1bb 000d cfba 8ce4 683d a8d9 4ebc
00000290: 0026 d0bb 5809 79bc 8cf4 4f3d 7c25 303d
000002a0: f10e 1e3c fe7e 013d 9283 35bd 3c54 ed3c
000002b0: ae4b 763d a062 3dbb c081 c1bc 2b89 54bd
000002c0: 2a71 27bd 4839 4e3d 1b5c c83c 4ee5 f4bc
000002d0: 3462 abbc 3192 64bc 9cc2 a23c c883 ee3c
000002e0: 8ceb 9c3d 5cdc d43c d6b8 7abd 9034 98bd
000002f0: c8eb 81bc 9041 293d a8f3 34bc 51f6 0d3c
00000300: 9089 4ebc ac76 ee3c db1f 153c fae3 6fb8
00000310: 7e24 7b3d a864 e43c 264e 9fbd 281d febc
00000320: dc88 39bd dcdb 323d dc7a f4bc 264b 5bbd
00000330: c841 583c 8808 42bd b936 83bc d8df 54bd
00000340: daa8 8ebd 7adf 0b3d 6c7e 8bbd 2654 65bd
00000350: 3063 803c 7478 12b9 a4b6 78bd 782d 3739
00000360: a8a8 293c 053f 8cbd 0509 2f3d 80a9 62bd
00000370: 80d8 663c 55ba 9dbc 3c23 1fbd 9c99 f8bc
00000380: 4a10 273d f2cd 5cbd 3028 223d a4cb 5c3c
00000390: 88ad 52bd 70b7 5ebd f5cf 773c 72d5 5dbd
000003a0: 045e 5d3c 50d3 103c 38a4 143d f07e c7bc
000003b0: 7634 513d d0ea f23c aa2b 503d c003 2e3d
000003c0: 1adf 2ebd e654 4a3d c629 13bd aef1 8bbd
000003d0: 1c0f 9cbc a033 c4bb fe85 b6bc 7c7d b73c
000003e0: 569c 70bc 8066 2cbc aff4 8fbd 95b7 27bd
000003f0: 8e5b 9ebc 1b36 25bd 4262 6abd 2c34 f0bc
0.035900064 0.03918854 -0.05425897 0.03401562 0.014196264 -0.060942642 -0.0064746365 -0.057178997
-0.027949385 -0.06581282 -0.01799348 -0.035654493 0.015247822 -0.05399108 0.045531403 -0.07720496
0.059102707 -0.022080034 -0.021006957 -0.014071676 0.053216748 0.020130828 0.052408583 -0.04865005
0.026583014 0.007803701 0.03743519 0.048535556 -0.05630164 0.023833469 -0.020994037 -0.017996632
-0.053419676 -0.078267016 0.020715326 0.041919738 0.043650158 0.023559354 -0.05875544 0.022904932
-0.04271988 -0.052448712 0.05209326 0.00045205242 -0.06373815 -0.064206 -0.00022821873 0.059829094
0.038070496 -0.03980688 -0.013939515 0.034680784 0.015370317 -0.04144495 0.01174432 0.02502979
-0.038293935 0.025459342 0.020472422 -0.013410337 -0.02440466 -0.020857424 -0.03350512 -0.0010479391
0.043451704 -0.0059470832 0.017353624 0.002670765 -0.013315524 0.019937024 -0.07454174 -0.020484082
0.0108836815 -0.0035577938 0.04573849 0.035998873 -0.0431714 -0.055164613 -0.060022756 -0.0187008
-0.04955566 -0.00645525 -0.037885986 0.027995173 0.0038825504 -0.060787328 -0.026644647 -0.044441476
-0.07570835 -0.051979914 0.023842035 -0.031057224 -0.044266857 -0.039525256 -0.0063172877 0.05676377
0.040005095 -0.0013118093 -0.059277788 -0.07913164 -0.0234202 -0.0580056 0.043462683 -0.034731783
0.022901975 -0.05381017 -0.04367259 -0.02738221 -0.07152029 0.031219818 -0.016271442 -0.07235877
-0.03864549 -0.080505766 -0.061636884 0.02682338 -0.04121861 0.0566575 0.025460303 -0.03597157
0.039958157 -0.016465154 0.0149600245 -0.061628558 -0.040523883 -0.01038269 -0.05616519 -0.043639623
-0.04234963 0.027419722 0.002343841 0.043512143 -0.015390515 -0.0030305386 0.03509593 -0.017049232
0.016688518 -0.03241749 -0.023431532 -0.046316173 -0.008224405 -0.04230103 -0.04603024 0.05507634
0.033340987 -0.059902057 -0.0030844063 0.00538923 0.0069439486 0.026561774 -0.07341272 0.009644082
0.01077199 -0.043779388 -0.0073096305 0.036476627 0.0068879128 -0.017457418 -0.02189938 0.013346747
-0.006399914 -0.0015796721 0.056858584 -0.0126251355 -0.006352186 -0.015199982 0.050770327 0.043004498
0.009647117 0.03161525 -0.04431493 0.02897083 0.060130768 -0.0028897896 -0.02362144 -0.051888626
-0.040879406 0.050347596 0.024457982 -0.029894497 -0.02092085 -0.01395087 0.019868188 0.029115573
0.076621145 0.025983982 -0.06121143 -0.074319005 -0.0158595 0.04132229 -0.01104442 0.008664683
-0.01260604 0.029109322 0.009101833 -5.719436e-05 0.0613141 0.027880028 -0.077785775 -0.031019762
-0.045296535 0.043666705 -0.02984374 -0.053538464 0.013199277 -0.047371417 -0.016017305 -0.051971287
-0.069658 0.03414867 -0.068112224 -0.055988453 0.015672296 -0.00013968517 -0.060721055 0.00017469178
0.010355152 -0.068479575 0.04273321 -0.05533743 0.014089704 -0.01925389 -0.03885196 -0.030346684
0.04078702 -0.053907342 0.039589107 0.013476286 -0.051435024 -0.05437416 0.015125264 -0.054158635
0.013511185 0.008839443 0.036289424 -0.02435252 0.05107542 0.029652983 0.05082289 0.042484045
-0.042693235 0.04939737 -0.03592851 -0.06833206 -0.019050173 -0.0059875995 -0.02228069 0.022398703
-0.014685711 -0.010522485 -0.070290916 -0.04094656 -0.019330766 -0.040334802 -0.057222612 -0.029321752

net.4.bias f4 [128]
00000000: 3745 93bd d863 60bc 0860 a13e 0f1a fb3d
00000010: bc01 6b3c f373 97bc 2921 51bb 6d07 4f3e
00000020: aa6e bfbc 57b3 85bd 59f5 92bd edc6 8abc
00000030: 148c cb3d dd87 39bc f1c2 ca3c f91a c83b
00000040: c540 093e 7bb7 2bbd d81a 333d 3909 533d
00000050: 734a 69bc c122 253e 58e2 3ebd 059a b0bb
00000060: 1ae0 ef3d fade 5b3d b874 863c 16e9 85bd
00000070: e24a f73c 5876 44bc 089d 2c3d 13ea 82bd
00000080: 43e5 573d f4a7 573b cd23 8ebc 9ac2 bd3d
00000090: d1b5 8fbc 9481 14bd 1a43 f3bd 9e2d 21bd
000000a0: 2fa1 67bd 3fbf ec3e 63b5 4b3c 52f3 c73d
000000b0: 181c bf3d e795 283c e8b0 c4bd efba fd3c
000000c0: 681b 6bbc 7876 7f3e 5945 a1bd 1aa3 8bbd
000000d0: c7fe d43e a7e7 83bd 2abf e33c 7f02 e4bd
000000e0: 4f19 8a3c 1996 b8bd 04ca 8bbc 6119 7ebd
000000f0: 8c6f a0bd 9d61 dfbc f512 843e 1f8a bc3d
00000100: 33f0 a43c fdbf 10bc 5b68 d73c 8a8d 9c3c
00000110: 530c 6a3e 3339 823c dc53 0cbd 209e e63c
00000120: 0513 b33d 9cca 7dbd 2bf0 ac3d 8751 78bd
00000130: d924 6c3c 4857 febd 4cab a73e 3e23 86bd
00000140: f1f1 c53d 8913 843d 1d83 2c3d 63b6 35bd
00000150: 517f 173e c17f 5e3d 7f2c f33c 78bf 313c
00000160: 64a3 cb3d 789f f23d 90da 1a3e 8e3a 9c39
00000170: ee22 dd3c 3df7 923c 8de3 1b3d 7f2e b03e
00000180: 28df e2bd cfb1 903c b770 ab3d 993d a83d
00000190: c04c 843d 06f1 6bbd e52b 173c cdaf 56bd
000001a0: fa37 18be db8a f8bc d38c 26bd 5991 4ebd
000001b0: 5914 b23c 8299 86bb b7b9 52bd 154b dab9
000001c0: 7980 163f bdf4 4ebc 449a 04bd cc59 a1bd
000001d0: 0121 2d3c f06f 323e c04d 3c3e 5072 aabd
000001e0: 8c49 07bd 8c65 ecbc d7eb 333e 51b8 343d
000001f0: fd86 a5bd 40e8 e8bb ac7e 5cbd 2357 a5bd
-0.07190936 -0.01369568 0.3151858 0.1226083 0.014343675 -0.018487906 -0.0031910634 0.20217676
-0.023368198 -0.06528347 -0.071757026 -0.016940558 0.09938827 -0.011323896 0.024751158 0.006106731
0.13403614 -0.041923027 0.043726772 0.051522467 -0.0142389415 0.16126539 -0.046602577 -0.0053894543
0.11712666 0.053679444 0.016413078 -0.06538598 0.030187074 -0.011991106 0.042141944 -0.06392302
0.052708875 0.0032906504 -0.017351056 0.09265633 -0.017542752 -0.036256388 -0.11878033 -0.039350145
-0.0565502 0.4623966 0.012433383 0.097632065 0.0933153 0.010289646 -0.09604055 0.030972926
-0.014349796 0.24947536 -0.07874555 -0.068182185 0.4160063 -0.064406686 0.027801115 -0.111332886
0.016857771 -0.09013004 -0.017064102 -0.062035922 -0.07833776 -0.027268225 0.25795713 0.09206032
0.020134067 -0.008834836 0.026294878 0.01911046 0.22856264 0.015896415 -0.034259662 0.028151572
0.08743862 -0.0619608 0.08444246 -0.060624626 0.014413082 -0.12418991 0.32747877 -0.06549691
0.09665287 0.064490385 0.042117227 -0.04436339 0.14794661 0.054321054 0.029684303 0.010848872
0.09943274 0.118468225 0.15122437 0.00029798265 0.026994195 0.017940158 0.038058806 0.34410474
-0.1107772 0.01766291 0.08371108 0.08214874 0.064599514 -0.057602905 0.009226774 -0.05241375
-0.14865103 -0.030339649 -0.040661644 -0.050431583 0.021738218 -0.004107655 -0.051446643 -0.0004163614
0.58789784 -0.012631592 -0.03237368 -0.078784555 0.010566951 0.17425513 0.18389034 -0.08322585
-0.033029124 -0.028857015 0.17570435 0.04412109 -0.080823876 -0.0071077645 -0.05383174 -0.08073261

net.6.weight f4 [1, 128]
00000000: 6a01 cdbb fe8a 57bb ad20 063e 3989 b5be
00000010: eccf 413b 9ad4 cdbc fb63 063b 6d4a 97be
00000020: fe2a febb 581d 18bb 19ca 6b3c 1571 373e
00000030: 6108 283e f980 d6bd d48d 3bbc 0123 603b
00000040: 8357 6cbe 46db 503d 75e0 82be 30b4 cf3d
00000050: df55 1a3d 74ca 833e 9ad0 3d3d 9bdb b8bd
00000060: 630e d03e d055 4ebc af82 27bd 85d0 bdbb
00000070: 5bd8 f2bc 6547 f2bc 4965 b73b 5c73 b2bc
00000080: 8f59 b6bb 1f6d 1d3d 3715 06bc 2c55 19bd
00000090: e986 8bbc d96d 7e3c f416 e23d 734c d9bb
000000a0: 82ad 45bc ad1d a63e edab 813e 0b75 1a3f
000000b0: 43ac 143e f97c 8bbb 06ec b5be b5f8 7abc
000000c0: d2b2 8a3c 5690 9fbe c315 ec3c d26b 9fbb
000000d0: 8998 eabe 9aab 113c 2b1d fe3a 3742 163e
000000e0: 8ba5 76bc 2407 51bb 84d1 9fbb 43df 08bc
000000f0: 54c9 3a3c d627 c3bd 66a0 36be 2b3a ef3d
00000100: 289e 8339 1a6e 9b3c 7118 a73d 3777 c0bd
00000110: 7f0c 453e 8f12 b03c 0402 833d eda6 bf3c
00000120: 9afb 8abd d3c2 adbc c733 40be c890 223d
00000130: 2769 5d3c 0e24 163d ee49 bfbe 3cdb 1fbb
00000140: 0e69 9abb 73df 1cbd 7972 f1bc 11ae ed3c
00000150: d566 c0be a23c 833d d8d6 033d 080d 0a3d
00000160: e78e b6bb bda4 85be 1039 ccbd 59c8 af3e
00000170: 3ac7 14bd 4102 063d a416 c13d feff a73e
00000180: f31f 1b3f aa95 95bc 86f5 9e3e 159d 363d
00000190: 7d0b e93d ef01 60be f3b6 a93c cca8 a83b
000001a0: c00f 0a3e 12c5 843d f33f 84be f387 763d
000001b0: 3a7a 5b3e abc4 8bbc e194 8f3c 9df6 00bd
000001c0: ed1b 93be e6d9 70bb 2fa3 453b 0b4a 873d
000001d0: 8257 1dbc 1346 54be 91be 66be bbc3 38bd
000001e0: 8db7 51bb 4862 83bd e1ed 4e3e 848e 00bc
000001f0: 588f d33d bfe8 333d 34f7 eabc 9a7e 053e
-0.006256272 -0.0032889242 0.13098402 -0.35456255 0.0029573394 -0.02512579 0.002050637 -0.2954897
-0.00775659 -0.002321085 0.014391446 0.17914231 0.16409446 -0.10473818 -0.011447389 0.0034200551
-0.23080258 0.050990365 -0.25561872 0.1014179 0.03767955 0.25740397 0.046341516 -0.090262614
0.40635976 -0.0125937015 -0.040896114 -0.0057926797 -0.029644182 -0.02957506 0.005596791 -0.021783523
-0.0055648754 0.038434144 -0.008183769 -0.03743474 -0.017032104 0.015529119 0.11039534 -0.006631428
-0.012065293 0.32444516 0.2532648 0.60334843 0.14518838 -0.0042568413 -0.35531634 -0.015318085
0.016930971 -0.31164807 0.02881897 -0.004865148 -0.458195 0.008891011 0.0019387355 0.14673696
-0.015054117 -0.0031895125 -0.004877271 -0.008354011 0.011400539 -0.095290825 -0.17834625 0.116810165
0.00025104103 0.018973399 0.08158959 -0.093977384 0.19243048 0.021493224 0.06396869 0.023395026
-0.067862704 -0.021211063 -0.18769751 0.039688855 0.01351384 0.03665548 -0.3736109 -0.0024392148
-0.0047122305 -0.038299035 -0.02947353 0.029013665 -0.37578455 0.06408049 0.032187313 0.033703834
-0.0055712345 -0.26102248 -0.09971821 0.3433254 -0.03632281 0.032716993 0.094281465 0.32812494
0.60595626 -0.018259842 0.31046695 0.0445834 0.11379144 -0.21875738 0.02071712 0.0051470753
0.1348257 0.06482901 -0.2583004 0.060188245 0.21433344 -0.017061552 0.017527046 -0.03148519
-0.28732243 -0.0036750971 0.003015708 0.066059195 -0.009603383 -0.20729856 -0.22533633 -0.045108538
-0.0032000274 -0.0641523 0.20207931 -0.007846478 0.10330075 0.043923136 -0.028682329 0.13036576
