prototyping/AntennaDesign/metaprototyping/Test3/s11_model_3.pt (torch, 935109 bytes, 9 tensors)

net.0.weight f4 [512, 4]
0	0xbe8bafb6	-0.27282494
1	0x3e89fb46	0.2694952
2	0xbe4b830a	-0.19874206
3	0x3dc11e1c	0.09429571
4	0xbe885690	-0.26628542
5	0x3e6b6349	0.22987093
6	0xbe19dc9a	-0.15025559
7	0x3e2b69ee	0.16739628
8	0x3e7fd190	0.24982285
9	0xbde71b9f	-0.11284565
10	0xbea59c60	-0.32345867
11	0xbc9f1471	-0.019418927
12	0xbd81ff98	-0.06347579
13	0xbdd250d0	-0.1026932
14	0xbe4ffcf8	-0.20311344
15	0x3c9b21e0	0.018937051
16	0x3cb4e455	0.022081533
17	0x3d17f97f	0.037103172
18	0x3cb3bcd3	0.021940624
19	0xbc7271cc	-0.014797639
20	0x3d5bfbde	0.053706996
21	0x3bf0bb80	0.0073465705
22	0x3eae4537	0.34037182
23	0x3db89c52	0.09014191
24	0xbe9228a2	-0.28546625
25	0xbda442f8	-0.08020586
26	0x3e658228	0.22412932
27	0xbd732fc0	-0.05937171
28	0x3e083f9c	0.13305515
29	0xbbd85d92	-0.0066029513
30	0x3e09f47c	0.1347217
31	0xbf528ca1	-0.8224583
32	0xbe3181c8	-0.17334664
33	0x3e1e424c	0.15454978
34	0x3d85df50	0.06536734
35	0xbf8f1be5	-1.1180388
36	0x3e67c096	0.2263206
37	0xbed10b1e	-0.40828794
38	0xbe53f68c	-0.20699519
39	0x3f02fb60	0.5116482
40	0xbefe2846	-0.496401
41	0xbe95f1e2	-0.29286104
42	0xbe564d88	-0.20928013
43	0x3db1fab8	0.08690399
44	0x3e22a8da	0.15884724
45	0x3d7b8355	0.061404545
46	0x3e51a4a1	0.20472957
47	0xbe952fbc	-0.2913798
48	0x3e8d2fdd	0.2757558
49	0xbe1d21a2	-0.15344861
50	0x3dca89ae	0.098895416
51	0x3eee9524	0.4659816
52	0xbdbac879	-0.091202684
53	0xbea06a80	-0.31331253
54	0x3ecf3623	0.4047099
55	0x3f1801e3	0.5937788
56	0xbd3fdb4c	-0.046839997
57	0xbe9ca302	-0.30593115
58	0x3daa98b2	0.083299056
59	0x3e83b9f6	0.25727814
60	0x3d4503b0	0.04809922
61	0xbde6f280	-0.11276722
62	0x3ce88340	0.028382897
63	0xbd98db80	-0.07463741
64	0xbe09cec9	-0.13457789
65	0x3e84325a	0.25819665
66	0x3ecf7564	0.4051925
67	0xbe82cd44	-0.2554723
68	0x3ee6f061	0.4510527
69	0xbebff20a	-0.3748935
70	0xbe9d4fbf	-0.30724904
71	0xbefca074	-0.49341166
72	0xbdc8100a	-0.09768684
73	0x3e72da9b	0.23716204
74	0x3e7d2b10	0.24723458
75	0x3e092366	0.1339241
76	0xbed83678	-0.42229056
77	0xbda1cc88	-0.07900339
78	0xbeec9bce	-0.4621262
79	0x3e455820	0.19271898
80	0x3e067c1f	0.13133286
81	0xbeed3117	-0.46326515
82	0xbf3218a2	-0.69568837
83	0x3e52b02d	0.20575018
84	0xbeda0276	-0.42580003
85	0x3eb111b6	0.34583825
86	0x3e95ae97	0.29234764
87	0x3dd00315	0.10156838
88	0x3d369356	0.044574104
89	0x3d5bbcd6	0.053646885
90	0x3daaf495	0.083474316
91	0xbeae5293	-0.34047374
92	0xbea08eac	-0.3135885
93	0x3de288d8	0.11061257
94	0xbe084528	-0.13307631
95	0xbeb05d88	-0.3444636
96	0xbe8fa3e6	-0.28054732
97	0xbef71df4	-0.4826504
98	0x3e304830	0.17215037
99	0xbdaaf4f0	-0.08347499
100	0xbe0d85ec	-0.13820618
101	0x3deb152c	0.114786476
102	0xbde51dd2	-0.111873284
103	0xbe72f241	-0.23725225
104	0xbe81654c	-0.25272596
105	0x3e8fd665	0.28093258
106	0xbe31146a	-0.17292944
107	0x3eecbc37	0.46237347
108	0xbeb7c960	-0.35895824
109	0xbe73f740	-0.23824787
110	0x3da1d500	0.07901955
111	0x3d2d2b20	0.042277455
112	0xbe41dd8b	-0.18932168
113	0xbdcde6a4	-0.10053757
114	0x3ee404d0	0.44534922
115	0x3f0b7cd6	0.5448736
116	0xbf1f0c22	-0.6212789
117	0x3e983e8d	0.29735222
118	0x3e3f0ee7	0.18658029
119	0x3e2c9a28	0.16855681
120	0xbdc250ba	-0.094880536
121	0x3dc45f00	0.09588432
122	0xbe0de3f3	-0.13856487
123	0x3e5189bb	0.20462696
124	0x3ee64af8	0.44979072
125	0xbecc362d	-0.39885083
126	0xbe085f73	-0.13317661
127	0x3d4b1498	0.049580187
128	0x3c225e79	0.009910219
129	0xbd6df9d3	-0.05809958
130	0xbf1a645d	-0.6030939
131	0xbf37c104	-0.71778893
132	0xbefbf5b9	-0.4921091
133	0x3eb786bc	0.35844982
134	0x3e9f3274	0.3109318
135	0xbd54ff35	-0.052001197
136	0x3e0909c6	0.13382635
137	0x3ddfcfc8	0.10928303
138	0x3eecad78	0.46226096
139	0xbf02fc82	-0.51166546
140	0xbe5ac644	-0.21364695
141	0x3e981e92	0.29710823
142	0x3c843608	0.016139045
143	0x3e3e0d79	0.18559827
144	0x3d7d37b1	0.06182069
145	0xbb77586f	-0.003774192
146	0xbed55c77	-0.41672108
147	0x3d8707f1	0.065933116
148	0xbd4b02a2	-0.049563058
149	0x3e46e280	0.1942234
150	0x3d897499	0.06711692
151	0x3dc2a320	0.0950377
152	0xbd8b225f	-0.06793665
153	0x3e0bae08	0.13640606
154	0x3ec83979	0.39106348
155	0x3eb17876	0.34662217
156	0xbdeac04e	-0.114624605
157	0x3e2fd412	0.17170742
158	0x3e826149	0.25464848
159	0xbc95b7f5	-0.018276194
160	0xbe590202	-0.21192172
161	0x3dc55943	0.09636166
162	0x3f13188f	0.5745935
163	0x3eaa509f	0.33264634
164	0x3ed41469	0.41421822
165	0xbd82847f	-0.06372928
166	0x3dbf58bc	0.093430966
167	0xbeabb8ee	-0.33539528
168	0xbecadcb0	-0.39621496
169	0xbeb43dde	-0.3520345
170	0x3e3f9c1c	0.18711895
171	0xbdc83858	-0.09776372
172	0x3e4ebb53	0.20188646
173	0xbe4fe0ca	-0.20300594
174	0xbe2c587d	-0.1683063
175	0xbf16cd7c	-0.58907294
176	0xbd27f2d5	-0.041003067
177	0x3e3aa55e	0.18227145
178	0x3dd55b18	0.104177654
179	0xbe9f64ef	-0.31131694
180	0x3e8e4f1f	0.2779474
181	0xbcf171b0	-0.029473156
182	0xbe022a52	-0.12711456
183	0xbe6104b9	-0.21974458
184	0xbe7ff68c	-0.24996394
185	0xbe8fbbc4	-0.2807294
186	0xbe8fe87c	-0.2810706
187	0x3e2317e4	0.15927082
188	0x3e435700	0.19076157
189	0xbed9b226	-0.4251873
190	0x3dce81c0	0.100833416
191	0xbed32502	-0.41239172
192	0x3ca8777d	0.020564789
193	0x3d8d7f3e	0.06909035
194	0x3eeaeaef	0.45882365
195	0x3ec00ffe	0.375122
196	0xbf163d7a	-0.58687556
197	0x3e96d7ba	0.2946146
198	0xbee998b6	-0.45624322
199	0x3b70fc71	0.003677156
200	0xbeff5e58	-0.49876666
201	0xbe55fb3c	-0.2089662
202	0x3bafb500	0.005362153
203	0xbe775c64	-0.24156338
204	0xbd5a240e	-0.05325704
205	0x3e208b88	0.15678227
206	0xbe873d98	-0.2641418
207	0xbecf4a62	-0.40486437
208	0xbf00edf6	-0.503631
209	0x3eb77835	0.35833898
210	0x3f33e9b6	0.7027849
211	0xbdfdaf31	-0.12386931
212	0xbd2a7596	-0.041616045
213	0xbed8531b	-0.42250904
214	0xbc896640	-0.01677239
215	0x3f2000a5	0.62500983
216	0xbd9ac5fa	-0.07557292
217	0xbe2cfbac	-0.1689288
218	0xbdeacf84	-0.11465362
219	0x3f0b96aa	0.5452677
220	0xbe885f9c	-0.26635444
221	0x3d492e10	0.049116194
222	0x3ef23d8c	0.47312582
223	0xbde2ef08	-0.11080748
224	0x3db02c17	0.086021595
225	0x3c998408	0.018739715
226	0x3eacf56b	0.3378099
227	0xbe0d696b	-0.13809745
228	0x3ea2bdee	0.3178553
229	0xbe28c74d	-0.16482277
230	0x3e918491	0.28421453
231	0xbe6bd90b	-0.23032014
232	0xbf0f27ee	-0.559203
233	0x3e9839c0	0.2973156
234	0x3cf1056a	0.029421527
235	0x3e5fc82f	0.21853708
236	0xbec7ea74	-0.3904606
237	0x3cd3bac0	0.025845885
238	0x3d494ea0	0.04914725
239	0x3cf57bc0	0.029966235
240	0x3c890d41	0.016729953
241	0x3d9874f0	0.07444179
242	0x3e89759e	0.26847547
243	0x3ebaebdf	0.3650808
244	0xbe91d562	-0.2848311
245	0x3e8250c9	0.2545226
246	0x3d7e849b	0.06213818
247	0xbf4d66a5	-0.8023475
248	0xbecc351f	-0.39884278
249	0x3ecc7316	0.39931554
250	0x3d621744	0.05519797
251	0xbd80de68	-0.062924206
252	0x3e538ada	0.20658436
253	0xbc1d6423	-0.009606394
254	0x3e812f2a	0.25231296
255	0xbf4f75fc	-0.81039405

net.0.bias f4 [512]
0	0xbfa3e40b	-1.2803968
1	0xbf99d704	-1.2018743
2	0xbfb0f36f	-1.382429
3	0x3ea8e5fe	0.3298797
4	0xbf96cdf5	-1.1781603
5	0x3fb57845	1.4177328
6	0x3e9858c6	0.2975523
7	0x3f5905a3	0.84774226
8	0x3e4782a7	0.19483434
9	0x3fa43b98	1.2830687
10	0xbe406528	-0.18788588
11	0xbfaabeec	-1.3339515
12	0xbf8ee611	-1.1163961
13	0x3e972412	0.29519707
14	0xbec62068	-0.386966
15	0xbb89da80	-0.0042069554
16	0xbfaad17c	-1.334518
17	0x3fb38369	1.4024478
18	0xbfc5e212	-1.5459616
19	0x3e40e95c	0.1883902
20	0x3f195fd3	0.5991184
21	0x3f8f96bf	1.1217879
22	0x3f969eb7	1.1767186
23	0x3e51a80c	0.20474261
24	0xbe97eb2e	-0.29671615
25	0x3f7ce8a0	0.9879246
26	0xbfaffe53	-1.3749489
27	0x3e9633ee	0.29336494
28	0x3f458bfe	0.77166736
29	0x3f68d43a	0.9094883
30	0xbf9e87bf	-1.2385176
31	0xbf8fedef	-1.1244487
32	0x3e80d61f	0.2516336
33	0x3fdb6ac9	1.7141963
34	0xbfc4b61f	-1.5368079
35	0xbfc66057	-1.549815
36	0xbfc399e1	-1.5281335
37	0xbfbdb1f6	-1.4819934
38	0xbf95ee82	-1.1713412
39	0x3f937d6e	1.1522653
40	0x3f0b429f	0.5439853
41	0xbfba046a	-1.4532597
42	0x3db3ffa0	0.08788991
43	0x3f3cdf4c	0.73778224
44	0xbfa357be	-1.2761152
45	0xbfba0c47	-1.4534997
46	0xbec66f1a	-0.3875664
47	0xbe6f24cc	-0.2335388
48	0xbf914e99	-1.1352111
49	0xbf197fc0	-0.59960556
50	0x3dba2ce0	0.090905905
51	0x3f9a93fd	1.2076412
52	0xbfa6fff2	-1.3046858
53	0x3ed65928	0.41864896
54	0x3f7e9d35	0.9945863
55	0x3ed52fe0	0.41638088
56	0x3f9483f2	1.1602767
57	0x3f891146	1.0708396
58	0x3f4b749e	0.7947482
59	0x3ef4be76	0.4780156
60	0xbfb596ab	-1.4186605
61	0x3f8cea22	1.1008952
62	0x3fc5f4f3	1.5465378
63	0x3f0bc98a	0.546044
64	0x3fcaa58b	1.583177
65	0x3e6a8248	0.22901261
66	0x3e645c38	0.22300804
67	0xbfaa1b22	-1.328953
68	0xbf958607	-1.1681527
69	0xbeca2202	-0.3947907
70	0xbfc8b9bd	-1.5681683
71	0x3f8ff21c	1.1245761
72	0xbfa80c8b	-1.3128828
73	0x3f41bbed	0.75677377
74	0xbf143451	-0.5789233
75	0x3ef7dad2	0.48409134
76	0x3cc7dd80	0.024397612
77	0x3f9e34b2	1.2359831
78	0x3ecf62dd	0.40505114
79	0x3cf9cd60	0.030493438
80	0xbfa508e1	-1.2893335
81	0xbebdd568	-0.3707688
82	0x3e358078	0.17724788
83	0xbfc06e18	-1.5033598
84	0xbf89c9f4	-1.0764756
85	0xbfb3f1f6	-1.4058216
86	0x3f8ce2ce	1.1006715
87	0x3e9647f8	0.29351783
88	0xbee8e5ec	-0.45487916
89	0xbf7cd6a5	-0.9876502
90	0xbeb98dca	-0.3624099
91	0x3ea4881f	0.32135102
92	0xbd6c69f0	-0.057718217
93	0xbf90c996	-1.1311519
94	0x3fc92d21	1.5716897
95	0xbfc4af00	-1.5365906
96	0x3f4752ce	0.77860725
97	0xbe368638	-0.17824638
98	0xbe493eec	-0.19652909
99	0x3f838baf	1.0277003
100	0xbf9e7701	-1.2380067
101	0x3db32db0	0.087489486
102	0x3f8b8cb6	1.0902317
103	0xbe49ca18	-0.19705999
104	0x3e720c14	0.2363742
105	0x3f80dda4	1.0067639
106	0xbfc73317	-1.5562466
107	0xbe7231d0	-0.23651814
108	0x3dd83b33	0.10558166
109	0x3e903900	0.28168488
110	0xbeea722c	-0.4579023
111	0xbf9c939e	-1.2232549
112	0xbf59ceb1	-0.8508101
113	0x3f86d2d7	1.0533093
114	0xbfb464e0	-1.4093285
115	0x3f5938b3	0.8485214
116	0x3f6c9c7a	0.92426264
117	0xbf82bca1	-1.0213815
118	0x3cbe08c0	0.023197532
119	0x3f15b436	0.58478105
120	0x3f36ba4f	0.71378034
121	0x3f9de3dc	1.2335162
122	0xbf6af9e4	-0.9178755
123	0xbe007988	-0.1254636
124	0x3ee08eae	0.43858856
125	0xbee5beb0	-0.44872046
126	0x3f8a7cff	1.0819396
127	0xbf9c0fbf	-1.2192305
128	0xbf05f578	-0.5232768
129	0xbdad8a51	-0.084736474
130	0x3e1182a4	0.14209992
131	0x3fa3336f	1.2750071
132	0xbf9725e6	-1.1808441
133	0xbfbf59ac	-1.4949241
134	0x3e8ab4d6	0.27091092
135	0xbf5b84c0	-0.85749435
136	0xbfa22d7b	-1.267013
137	0xbfa7b95d	-1.3103443
138	0xbead866d	-0.3389162
139	0x3f8b2679	1.0871116
140	0xbefdeafe	-0.49593347
141	0xbd497f20	-0.0491935
142	0xbf84192c	-1.0320182
143	0x3f6d9d94	0.9281857
144	0xbd7c98b0	-0.06166905
145	0xbf74851a	-0.95515597
146	0xbf91a0cb	-1.1377195
147	0x3ea2ccb2	0.31796795
148	0x3ed4d302	0.41567236
149	0x3f98781a	1.1911652
150	0xbecd6258	-0.40114093
151	0xbf999660	-1.1999016
152	0x3fa43cc7	1.2831048
153	0xbef11da2	-0.4709292
154	0x3e940f44	0.28917897
155	0xbfb20926	-1.3909042
156	0x3f9458ed	1.1589638
157	0xbf9feb6e	-1.2493722
158	0xbf9117dd	-1.1335407
159	0x3f4d3267	0.8015503
160	0xbe988484	-0.297886
161	0x3eaffd8e	0.34373134
162	0x3fb5bb82	1.4197848
163	0x3fa4470a	1.2834179
164	0x3f0b6ff7	0.5446772
165	0x3ed8939a	0.4230011
166	0x3f22ee74	0.636451
167	0xbfc28d6c	-1.5199409
168	0xbfb9f38d	-1.4527451
169	0x3f8b6608	1.0890512
170	0x3f9dbdaf	1.2323512
171	0x3d3c74d0	0.04600984
172	0x3e80ed0c	0.25180852
173	0x3e214ad8	0.15751207
174	0xbfa1aa42	-1.2630084
175	0x3eed3a60	0.463336
176	0xbf882548	-1.0636377
177	0xbf332def	-0.69991964
178	0xbf5bdd67	-0.8588471
179	0xbee187cb	-0.44048914
180	0x3f9bb0ba	1.2163308
181	0x3fcec367	1.6153382
182	0x3f895aca	1.0730832
183	0xbfc1d92a	-1.5144398
184	0xbe38e74c	-0.18056983
185	0xbe944796	-0.28960866
186	0xbef379ea	-0.4755395
187	0xbf968943	-1.1760639
188	0xbf916d5c	-1.1361499
189	0x3e91ed00	0.2850113
190	0x3f1671e9	0.58767563
191	0x3d96caf5	0.0736293
192	0x3ed6d7dc	0.41961563
193	0xbfbcdae1	-1.4754297
194	0xbea2e7a2	-0.31817347
195	0xbe491648	-0.19637406
196	0x3fa60bd0	1.2972355
197	0x3eb34338	0.3501222
198	0xbfa97527	-1.3238877
199	0xbe015f44	-0.12633997
200	0xbfc05dbe	-1.5028608
201	0xbfaaa2c8	-1.3330927
202	0xbed40e54	-0.41417181
203	0x3e0a56f5	0.13509734
204	0xbe1651b4	-0.14679605
205	0x3ed94a5a	0.42439538
206	0x3faca2e3	1.3487209
207	0xbfc00995	-1.5002924
208	0xbf93c98b	-1.1545881
209	0x3eaf96db	0.3429478
210	0xbefd39a8	-0.4945805
211	0x3f828206	1.019593
212	0x3eda4b74	0.4263569
213	0x3efcc530	0.49369192
214	0xbf94c46a	-1.1622441
215	0x3f474f14	0.7785504
216	0xbf731311	-0.9495097
217	0x3f2ec7a9	0.6827341
218	0xbfb6ffbf	-1.4296798
219	0x3f7c999b	0.98671883
220	0xbe384b4c	-0.17997473
221	0xbebc80e8	-0.36817098
222	0xbfae2bca	-1.3607113
223	0xbf9bf3de	-1.2183797
224	0xbe7a087c	-0.24417299
225	0xbea9dff2	-0.3317867
226	0x3f9b7d6a	1.2147648
227	0xbfa9374b	-1.3219999
228	0xbf3bd5cd	-0.7337311
229	0xbf91bbbc	-1.1385417
230	0x3d90076a	0.07032664
231	0x3e9f6f36	0.31139535
232	0xbf8d7b6a	-1.1053288
233	0xbfc3ff19	-1.5312225
234	0x3f3bb16d	0.73317605
235	0x3fbc5952	1.4714758
236	0x3f95c538	1.1700811
237	0x3fb17ba7	1.3865861
238	0x3e96421f	0.2934732
239	0xbfbb4875	-1.4631487
240	0x3fc97404	1.573853
241	0x3fb9588c	1.4480147
242	0xbe8c0d00	-0.27353668
243	0xbfad5d4c	-1.3544097
244	0x3f359392	0.709283
245	0x3fa823da	1.3135941
246	0x3fba5b1b	1.4559053
247	0x3f87c14e	1.0605867
248	0x3ef5ed8c	0.48032796
249	0xbda7fdf0	-0.082027316
250	0x3fa51ec9	1.290002
251	0xbfa5f695	-1.2965876
252	0x3f0a305f	0.5398006
253	0x3e90748b	0.28213915
254	0xbf9e5651	-1.2370092
255	0xbf857446	-1.0426109

net.2.weight f4 [256, 512]
0	0x3ca95db2	0.02067456
1	0xbd0e0467	-0.034672167
2	0xbd464c18	-0.048412412
3	0x3ced85e7	0.028994514
4	0x3d198719	0.037482355
5	0xbd404111	-0.046937052
6	0x3c940e2c	0.018073164
7	0xbc01e084	-0.007927064
8	0x3cc333a9	0.023828344
9	0xbbd894a9	-0.0066095185
10	0xbc7a9586	-0.015294438
11	0xbd539c02	-0.051662453
12	0x3d19f981	0.03759146
13	0x3cf4bc9f	0.029875098
14	0x3c2b250e	0.010445846
15	0x3ce9cda9	0.02854045
16	0xbc6a2b77	-0.014292589
17	0xbd4be25f	-0.04977643
18	0xbd103d11	-0.035214487
19	0x3cc3fc52	0.023924027
20	0xbc4006ac	-0.011720341
21	0xbca0f1ef	-0.019646613
22	0xbd19e894	-0.03757532
23	0xbbd4b569	-0.0064913523
24	0xbd336bb7	-0.043803897
25	0xbab423be	-0.0013743562
26	0xbd33b213	-0.043870997
27	0xbd2ebe1b	-0.042661767
28	0xbc608189	-0.013702759
29	0xbd2bddb9	-0.041959498
30	0xbd2d5bff	-0.042324062
31	0x3d095748	0.033530504
32	0xbd1d1145	-0.038346548
33	0x3cde1b4d	0.027112627
34	0x3cb42a1d	0.021992737
35	0xbcb57f1d	-0.022155339
36	0xbd0bb5b8	-0.034108847
37	0x3cbfdd9b	0.0234211
38	0xbc38b23f	-0.011272966
39	0x3cadd1aa	0.02121814
40	0x3d0ca3ee	0.034336023
41	0xbc8c050c	-0.01709225
42	0x3cc27d7a	0.023741473
43	0x3b0af66e	0.0021204012
44	0x3c29b4f4	0.010358084
45	0xbc83ce1c	-0.016089492
46	0x3b5c1dde	0.0033587138
47	0x3c46c05b	0.012130822
48	0xbc3dc7e8	-0.011583306
49	0x3c4f28f3	0.01264404
50	0xbcd1748c	-0.02556827
51	0xbd634c1a	-0.055492498
52	0xbca73e9b	-0.020415595
53	0xbbcb3c24	-0.0062022377
54	0xbcdc8e8f	-0.026923446
55	0xbb247414	-0.0025093602
56	0x3cdb55cf	0.026774315
57	0x3d023ef5	0.03179832
58	0xbce9cf2a	-0.028541166
59	0x3cf5519c	0.029946141
60	0x3bc75f7e	0.0060843816
61	0x3b280589	0.0025638065
62	0xbb41b4aa	-0.0029557147
63	0x3cefa1a7	0.029251887
64	0x3c656b3e	0.014002619
65	0x3c9db2f2	0.019250367
66	0xbd2a285d	-0.0415424
67	0xbd2301e3	-0.03979672
68	0x3c88ac55	0.016683737
69	0xbb4fe053	-0.00317194
70	0x3c79985f	0.015234082
71	0xbcf1a642	-0.029498223
72	0xbc8d35b7	-0.017237527
73	0x3c6ce773	0.014459479
74	0xbd1c88ae	-0.038216285
75	0x3d1f4b85	0.03889038
76	0xbd301505	-0.042988796
77	0xbd18cd3f	-0.037305113
78	0xb9815d05	-0.00024674102
79	0x3d0eb942	0.034844644
80	0xbd1b7537	-0.03795358
81	0xbc9a18fa	-0.018810738
82	0x3ca14cd3	0.019689953
83	0x3cbdbdde	0.023161825
84	0x3a9f1a01	0.0012138487
85	0x3961eef9	0.00021546696
86	0x3cc26d6b	0.023733815
87	0xbd2dd56c	-0.042439863
88	0x3b55b47f	0.0032608805
89	0xbd2369ed	-0.03989594
90	0x3cc25bbf	0.023725389
91	0x3c838af6	0.016057473
92	0x3d00cc91	0.03144509
93	0xbd068fe4	-0.03285207
94	0x3c642842	0.013925614
95	0xbd1cfc66	-0.038326643
96	0x3c741562	0.014897676
97	0xbc32a832	-0.010904359
98	0x3d1e6ccb	0.03867797
99	0xbd01e67c	-0.031713948
100	0x3b673841	0.0035281333
101	0xbcc2ae41	-0.023764731
102	0xbd3cdc8e	-0.046108775
103	0x3ce57f34	0.028014757
104	0x3ca046cc	0.019565009
105	0xbc0a7eb3	-0.008453059
106	0xbd2ee067	-0.042694476
107	0xbc967588	-0.01836659
108	0xbd01c0ba	-0.03167794
109	0x3ca2d9bf	0.01987922
110	0xbc91e99a	-0.017811585
111	0xbc692816	-0.014230749
112	0x3cfcc4e2	0.0308556
113	0x3c21a7e9	0.009866693
114	0xbb829b1e	-0.0039857766
115	0xbcdb5ea8	-0.026778534
116	0xbcefeced	-0.02928778
117	0x3c90b906	0.017666351
118	0xbd2c2b83	-0.042033684
119	0x3bf60dc8	0.007508967
120	0xbbc8b9fa	-0.0061256858
121	0xbb0e60ea	-0.0021725246
122	0xbd0fe26e	-0.03512805
123	0x3d27c208	0.040956527
124	0x3d2f48cb	0.04279403
125	0x3c86bbc6	0.01644696
126	0xbcf15578	-0.0294597
127	0xbd24dc0a	-0.040248908
128	0x3aad0660	0.0013200752
129	0xbcbadb4f	-0.022809653
130	0x3aa67ea1	0.0012702533
131	0x3c09a13c	0.008400258
132	0xbb304aa6	-0.0026899963
133	0x3ce2ed87	0.027701152
134	0xbd349990	-0.04409176
135	0xbc133b0f	-0.008986249
136	0x3c80894d	0.01569047
137	0xbbc1ffce	-0.005920387
138	0xbc97c2b5	-0.01852546
139	0x3c35f1bc	0.011104997
140	0x3c4c9b99	0.012488269
141	0x3c95c67d	0.018283123
142	0x3c9a3d12	0.018827949
143	0xbd2037c0	-0.039115667
144	0x3c88392b	0.016628822
145	0x3d16e664	0.03684081
146	0xbbc701bf	-0.006073206
147	0xbc5caae4	-0.013468478
148	0x3b54f76f	0.0032496115
149	0xbc8fa878	-0.017536387
150	0xbd304821	-0.043037537
151	0xbd22b2f7	-0.039721455
152	0xbc9a9cfc	-0.018873684
153	0x3c6bf94d	0.0144027
154	0xbd195bfd	-0.037441242
155	0x3c3270de	0.010891167
156	0x3ce137ae	0.02749237
157	0xbca2a1a8	-0.019852474
158	0x3bbbf23f	0.005735665
159	0x3d01078f	0.03150135
160	0xbd27cc02	-0.04096604
161	0x3ce2ca95	0.02768449
162	0xbc9101e7	-0.017701102
163	0x3d157335	0.036486823
164	0xbd38f68b	-0.045156997
165	0xbcba9b1e	-0.022779044
166	0x3c7e8318	0.015534185
167	0x3d031fe8	0.03201285
168	0x3cabc4c2	0.020967845
169	0x3cf626d5	0.030047813
170	0xbd0503ae	-0.032474212
171	0x3cd42a95	0.025899211
172	0xbd0ccc18	-0.034374326
173	0xbc53b537	-0.012921623
174	0xbd445a6e	-0.047937803
175	0xbc0a3329	-0.008435049
176	0xbd22b0da	-0.03971944
177	0xbd26eed2	-0.0407551
178	0x3cdbd7b5	0.026836256
179	0xbc2326c2	-0.009957971
180	0x3cb96124	0.022629328
181	0x3ca19bef	0.019727675
182	0x3cce7cf3	0.025206065
183	0x3a0ba79e	0.0005327406
184	0x38ad1ea0	8.254987e-05
185	0x3cebdd8c	0.028792165
186	0xbd207f0f	-0.039183673
187	0xbd0dd810	-0.03462988
188	0xbc24c343	-0.01005632
189	0x3b6e35f3	0.0036348074
190	0x3d00e3a3	0.03146709
191	0x3b669675	0.0035184894
192	0x3cf9db6e	0.03050014
193	0xbd4995aa	-0.049214996
194	0x3bc87c32	0.006118321
195	0x3c62584e	0.013814999
196	0xbc857867	-0.016292764
197	0xbc501ea9	-0.012702622
198	0xbc3eecb9	-0.011653119
199	0x39fd87eb	0.00048357187
200	0xbc7fb660	-0.015607446
201	0xbd149128	-0.036271244
202	0x3afec3a4	0.0019436968
203	0x3bf514fb	0.0074793077
204	0x3bd131d6	0.0063841147
205	0x3d3042e6	0.04303255
206	0xbc9c73eb	-0.019098243
207	0x3a759202	0.0009367765
208	0xbd24e6f8	-0.04025933
209	0x3c1be422	0.00951484
210	0xbc8387d4	-0.016055979
211	0x3cc3dcfa	0.02390908
212	0x3c361c25	0.011115109
213	0xbce3a437	-0.027788265
214	0x3d07648f	0.033054885
215	0x3c0655cb	0.008199166
216	0x3d0e23df	0.034702178
217	0xbd56aabb	-0.052408915
218	0x3c593657	0.013257585
219	0xbc5373a9	-0.0129059935
220	0x3d233c9b	0.03985272
221	0xbcead1e9	-0.028664546
222	0xbc5d27cc	-0.013498258
223	0xbd0b91b9	-0.03407452
224	0x3cb2331b	0.021752885
225	0xbd13e903	-0.03611089
226	0xbd33220f	-0.043733653
227	0xbc593cff	-0.0132591715
228	0xbd332a3e	-0.043741457
229	0xbd1a6a20	-0.037698865
230	0xbd2bb900	-0.041924477
231	0xbcbf6170	-0.023361892
232	0xbd127020	-0.035751462
233	0x3c16eb0e	0.009211315
234	0xbd163c48	-0.036678582
235	0x3c953616	0.018214267
236	0xb948629a	-0.00019110218
237	0xbcd247d2	-0.025669012
238	0xbc134927	-0.008989609
239	0xbd098089	-0.033569846
240	0xbcbeae80	-0.023276567
241	0xbc8de0f2	-0.017319176
242	0xbd1a7d09	-0.0377169
243	0xbd2bc42e	-0.04193514
244	0xbd4c5461	-0.049885157
245	0xbccdb2a1	-0.025109591
246	0x3af0bc26	0.001836662
247	0x3c0f5eeb	0.008750658
248	0x3d3110ba	0.043228842
249	0x3d01a60d	0.0316525
250	0x3c619348	0.013768025
251	0xba0eb024	-0.0005443117
252	0xbbe417e5	-0.0069608563
253	0xbd17eb97	-0.03708991
254	0xbcffc266	-0.031220626
255	0x3cef0167	0.029175473

net.2.bias f4 [256]
0	0x3c2c8574	0.010529865
1	0xbd11bdb7	-0.035581317
2	0xbc95c917	-0.018284364
3	0xbc60b140	-0.013714135
4	0xbcbea20e	-0.023270633
5	0xbf26feef	-0.6523275
6	0xbf7ed850	-0.99548817
7	0xbf8724a1	-1.0558053
8	0xbd04ae71	-0.032392923
9	0xbd9fe1eb	-0.07806762
10	0x380b5786	3.3221695e-05
11	0xbcd1a8b5	-0.025593141
12	0xbf6f24d7	-0.9341559
13	0xbc19f78d	-0.0093974
14	0xbd10ffdd	-0.03540026
15	0xbe81c9c3	-0.25349244
16	0x3d2c7fe8	0.04211417
17	0x3c4ef333	0.012631225
18	0x3ab4cb92	0.0013793579
19	0xbc521688	-0.012822755
20	0x3cfb0d4a	0.030645985
21	0xbf87d2c0	-1.0611191
22	0xbf416283	-0.7554094
23	0xbf630b5e	-0.8868922
24	0xbd863e81	-0.065548904
25	0xbce15fbd	-0.027511472
26	0x3d0e0963	0.03467692
27	0xbbdae982	-0.0066806683
28	0x3f6d2591	0.92635447
29	0xbc741a2a	-0.014898816
30	0xbf0f1084	-0.55884576
31	0x3cfa5a19	0.03056054
32	0xbce652ec	-0.028115712
33	0x39b11035	0.00033772146
34	0xbcc8a8ab	-0.02449449
35	0xbc9621f3	-0.018326735
36	0xbbd7e5a1	-0.006588653
37	0xba8baf27	-0.0010657058
38	0x3bf0945d	0.007341905
39	0x3cbe5a5c	0.023236446
40	0xbcba46c6	-0.022738826
41	0x3f6ec2a6	0.9326576
42	0x3da8547b	0.08219238
43	0xbe738237	-0.23780142
44	0x3d9d7248	0.07687813
45	0xbd719df7	-0.058988538
46	0xbd825283	-0.06363394
47	0xbc9f345e	-0.01943415
48	0x3b567fb2	0.003272992
49	0xbc12cc87	-0.008959896
50	0xbd0bbe7b	-0.034117203
51	0x3d064fc7	0.032790925
52	0xbbdfc9da	-0.0068294825
53	0xbd8626c9	-0.065503664
54	0xbc5645cc	-0.013078164
55	0xbd60527d	-0.054766167
56	0x3b9723de	0.00461243
57	0xbf5ca799	-0.86193234
58	0x3bdec241	0.006798059
59	0x3d113aee	0.03545659
60	0x3bb9add3	0.0056664734
61	0xbc92c038	-0.017913923
62	0xbd77806e	-0.060425214
63	0x3cb7f54b	0.022455832
64	0xbd83ac9e	-0.064294085
65	0x3cbb4710	0.022861034
66	0x3b256557	0.0025237405
67	0x3f45a22e	0.7720059
68	0xbb00aa83	-0.0019632883
69	0xbf981e7f	-1.1884307
70	0xbf38ea5b	-0.722326
71	0xbd801020	-0.062530756
72	0xbe423d93	-0.18968801
73	0xbd1f7e50	-0.03893882
74	0x3d052253	0.032503437
75	0xbe9d22f7	-0.3069074
76	0x3fa2ea1c	1.2727695
77	0x3d170c35	0.036876876
78	0x3c8cb604	0.017176636
79	0xbd2dceb5	-0.04243346
80	0x3f7305d2	0.94930756
81	0xbf6e0dc9	-0.92989784
82	0xbce09c5d	-0.02741831
83	0xbc3555dc	-0.011067834
84	0x3f6624d1	0.8989993
85	0x3bfcd63e	0.0077159693
86	0xba59ea28	-0.0008312785
87	0xbd76f9a8	-0.060296685
88	0xbe53d456	-0.20686468
89	0x3a54e389	0.00081210636
90	0xbc528de3	-0.012851211
91	0xbdf432cb	-0.119237505
92	0xbf51ff6e	-0.8203038
93	0xbceffafd	-0.029294485
94	0xbc2b3d6a	-0.010451654
95	0xbb8b7f7a	-0.0042571397
96	0xbc25b0d8	-0.010112964
97	0xbf2971ae	-0.66189086
98	0x3c4b81c4	0.012421075
99	0xbd0d4eee	-0.0344991
100	0xbc76d982	-0.015066506
101	0x3cf95f3d	0.030440921
102	0x3ac64e53	0.0015129544
103	0xbca85108	-0.020546451
104	0x3f922390	1.1417103
105	0x3f3cea99	0.7379547
106	0xbc35ffc6	-0.011108344
107	0xbe45ccad	-0.19316359
108	0xbd36f5c4	-0.044667974
109	0x3f423e27	0.75876087
110	0xbd97ca83	-0.07411673
111	0x3f3426c4	0.7037165
112	0x39e2c012	0.00043249183
113	0xbd18505f	-0.037186023
114	0xbd34b934	-0.044121936
115	0xbf670a6d	-0.90250283
116	0x3d12e57f	0.035863396
117	0x3f83ddee	1.0302103
118	0x3f78a762	0.97130406
119	0xbd277de3	-0.04089154
120	0xbe27570c	-0.163418
121	0xbd04ab01	-0.032389645
122	0x3c841ba6	0.016126465
123	0x3c6e0d70	0.014529571
124	0xbd0ffb10	-0.03515154
125	0x3c674dbb	0.0141176535
126	0x3cb196cb	0.021678349
127	0xbf58562f	-0.84506506
128	0xbc8aac8c	-0.01692798
129	0xbcbff1af	-0.023430673
130	0xbc82b049	-0.0159532
131	0x3ca77c70	0.020445079
132	0xbc4a867e	-0.012361167
133	0xbd209d8a	-0.03921274
134	0x3b8ce70f	0.0043000053
135	0xbd8e745d	-0.06955788
136	0x3df0e572	0.11762513
137	0xbfb059d0	-1.3777409
138	0x3b8e77e7	0.0043477896
139	0xbf352927	-0.7076592
140	0xbc92e97b	-0.017933598
141	0xbe1d2dcd	-0.15349503
142	0x3f808a3b	1.0042185
143	0x3ba0d6e5	0.00490843
144	0xbf5cec50	-0.86298084
145	0xbd0c750e	-0.03429132
146	0x3c1df6f3	0.009641397
147	0x3f8e75b1	1.1129667
148	0x3c51795c	0.012785282
149	0x384eb38f	4.9281454e-05
150	0xbc4a7f25	-0.012359415
151	0x3f29baa8	0.6630044
152	0xbf4caf7c	-0.7995527
153	0xbc09cabe	-0.008410154
154	0xbd09c292	-0.033632822
155	0xbce60428	-0.028078154
156	0x3ce3e4fc	0.02781915
157	0x3c5fa6c0	0.013650596
158	0xbd4bb091	-0.049728934
159	0x3bb4bab1	0.0055154194
160	0xbf6e161a	-0.93002474
161	0xbe63cca7	-0.22246037
162	0x3ce8b977	0.028408749
163	0xbe7e124c	-0.24811667
164	0xbf85fea8	-1.046834
165	0xbca9aad8	-0.020711347
166	0x3daddaa6	0.084889695
167	0x3c777020	0.015102416
168	0x3cf017b0	0.02930817
169	0xbf05dc29	-0.5228906
170	0xbba6d5fd	-0.0050914274
171	0xbd207aca	-0.0391796
172	0x3ca0364d	0.019557143
173	0xbce56586	-0.028002512
174	0x3f73132d	0.94951135
175	0xbcbf11f1	-0.023323985
176	0xbcbecdcb	-0.02329149
177	0xbaabea3a	-0.001311607
178	0xbd325eb2	-0.04354734
179	0x3e02f0fe	0.12787244
180	0x3f3cd41f	0.7376117
181	0xbd3271e0	-0.04356563
182	0xbd425339	-0.04744265
183	0x3f5340db	0.82520837
184	0xbe16b8b3	-0.14718895
185	0xbd8ba318	-0.06818217
186	0xbd6838ff	-0.05669498
187	0x3b4292db	0.0029689583
188	0x3d0708a7	0.032967236
189	0x3f9ba01a	1.2158234
190	0x3c73816b	0.014862399
191	0xbebd8a5a	-0.37019616
192	0x3f952cbf	1.165428
193	0x3f38edb4	0.72237706
194	0xbd0a0e02	-0.033704765
195	0x399a61cf	0.00029446042
196	0x3cb8a741	0.02254069
197	0xbc965856	-0.018352669
198	0xbd1ada47	-0.03780582
199	0xbc54aad8	-0.012980185
200	0xbb908427	-0.004410285
201	0x3a2d6546	0.0006614517
202	0xbc1af292	-0.009457247
203	0xbb0167d6	-0.001974573
204	0xbc6e9aeb	-0.0145633025
205	0x3cfbfea4	0.03076107
206	0xbf8dcf37	-1.1078862
207	0xbd6c059c	-0.057622537
208	0x3ba02a4e	0.0048878556
209	0xbcdaf089	-0.026726024
210	0x3d325fe8	0.043548495
211	0xbd0d0e47	-0.034437444
212	0xbd0b38cd	-0.033989716
213	0xbd8aebf7	-0.06783288
214	0xbf542313	-0.8286602
215	0xbcddbf1d	-0.027068669
216	0xbd6771fd	-0.056505192
217	0xb908e93a	-0.00013056854
218	0xbf3e18fa	-0.7425686
219	0xbcad6952	-0.021168385
220	0xbf6c5aa8	-0.9232583
221	0x3b94b51b	0.004538191
222	0xbdd6e776	-0.104933664
223	0xbfa993e3	-1.3248256
224	0x3e891921	0.26776984
225	0x3c6f507e	0.014606593
226	0xbd39eaa6	-0.045389794
227	0xba0d64bb	-0.0005393733
228	0x3f7f1c5d	0.99652654
229	0xbbce5639	-0.0062968996
230	0xbd1f535f	-0.03889787
231	0x3ca8c6cd	0.020602608
232	0xbd06b3a2	-0.032886155
233	0x3bd8c16a	0.0066148536
234	0x3cebc19b	0.028778842
235	0xbd239f02	-0.039946564
236	0xbcd96951	-0.026539477
237	0xbf315ee1	-0.692854
238	0xbb244aaa	-0.0025068917
239	0xbd07d2c0	-0.03315997
240	0xbd315c1b	-0.04330073
241	0xbf5e3722	-0.86802876
242	0xbd00036b	-0.03125326
243	0xbcbff298	-0.023431107
244	0x3c7c1563	0.015385958
245	0xbe201738	-0.15633857
246	0xbca4ef56	-0.020133656
247	0xbbe93919	-0.0071174023
248	0x3b0860b3	0.002080959
249	0xbd5cfda8	-0.053952843
250	0x3f9e96ff	1.238983
251	0xbbd0eb55	-0.00637571
252	0x3bebce2b	0.007196208
253	0x3d19cefb	0.037550908
254	0x3c27fc8d	0.010253084
255	0xbf6fa16d	-0.9360569

net.4.weight f4 [256, 256]
0	0xbbca3538	-0.006170895
1	0xbd55f306	-0.05223372
2	0xbd2ff802	-0.042961128
3	0x3ca29fe2	0.019851629
4	0xbd6172ba	-0.055041052
5	0xbd615028	-0.055008084
6	0xbb17f62a	-0.0023187497
7	0xbd945717	-0.072431736
8	0xbc8889f4	-0.016667344
9	0xbb14de40	-0.002271548
10	0xbc863bf4	-0.01638601
11	0x3c2f2e7f	0.010692238
12	0x3c8e2086	0.017349493
13	0x3d79b0ba	0.060959555
14	0xbc4ae658	-0.01238402
15	0xbd75a0a2	-0.059967645
16	0x3d1e06ec	0.03858082
17	0x3cd1b7f0	0.025600404
18	0x3c659575	0.014012684
19	0x3cc7d3c0	0.024392962
20	0x3ca08ab2	0.019597385
21	0xbd3154e4	-0.04329385
22	0x3c7117da	0.014715159
23	0xbd1604df	-0.03662574
24	0x3c9fe560	0.019518554
25	0x3c9dcba0	0.019262135
26	0x3bfccbf0	0.007714741
27	0x3d0c762a	0.034292378
28	0xbd08e747	-0.03342369
29	0xbcc7e8d4	-0.024403013
30	0xbd552758	-0.052039474
31	0x3d4296fe	0.04750728
32	0x3d23812a	0.039918102
33	0xbd669a2a	-0.056299366
34	0x3c0a53a2	0.008442791
35	0xbc7253ca	-0.014790485
36	0x3d37dbea	0.04488746
37	0x3d2535aa	0.04033438
38	0xbd63a57a	-0.055577733
39	0xbd50c919	-0.05097303
40	0x3c4a2e80	0.012340188
41	0x3d30e332	0.04318542
42	0xbd04c9c7	-0.032418992
43	0xbd3bc7b9	-0.045844767
44	0xbd1b6a71	-0.037943307
45	0xbd0e8984	-0.034799114
46	0xbd0b00b0	-0.033936203
47	0xbce0a620	-0.027422965
48	0x3c0ae090	0.008476391
49	0xbcbb2bdd	-0.022848064
50	0xbc5b3dc8	-0.013381429
51	0xbd3b2af0	-0.045695245
52	0xbd1d855e	-0.038457267
53	0x3b370172	0.0027924445
54	0x3caaade8	0.020834878
55	0xbb92e0fc	-0.0044823866
56	0x3c5938ac	0.0132581405
57	0xbd59ab19	-0.053141687
58	0x3d751f82	0.0598445
59	0xbc9c7db5	-0.01910291
60	0x3d602243	0.054720175
61	0x3d214810	0.039375365
62	0x3cbe0eac	0.023200355
63	0x3d20a87a	0.03922317
64	0x3d50bd78	0.05096194
65	0xbd09fa4e	-0.033685975
66	0x3d3b7760	0.04576814
67	0xbd43f3b0	-0.04783982
68	0x3c4043c4	0.011734907
69	0x3cdc6191	0.026901992
70	0xbc088218	-0.008331798
71	0x3d7110b4	0.05885382
72	0xbd270811	-0.040779177
73	0xbd20fc2e	-0.039302997
74	0xbd003789	-0.031302962
75	0xbca2a390	-0.019853383
76	0xbcac04fb	-0.020998469
77	0xbbc359dd	-0.0059616403
78	0x3c9ad0d3	0.018898403
79	0x3cf2b258	0.029626057
80	0xbd99f2e6	-0.07517032
81	0xbd94a4be	-0.072579846
82	0x3d69fcd4	0.05712588
83	0xbca04908	-0.019566074
84	0xbd144ae9	-0.036204252
85	0xbd507c04	-0.05089952
86	0x3d1f1ea7	0.03884759
87	0xbd2e4b6d	-0.0425524
88	0xbce2ee8f	-0.027701644
89	0xbd2f0242	-0.042726763
90	0xbcd72637	-0.02626334
91	0xbd80e5ee	-0.062938556
92	0x3cd2c5e1	0.025729122
93	0x3ce87ec8	0.028380767
94	0xbd0ad99c	-0.033898935
95	0xbd3f7a5d	-0.046747554
96	0x3c5cf488	0.013486035
97	0xbdab35e0	-0.08359885
98	0xbd512ec0	-0.051069975
99	0xbc4a5ed0	-0.012351707
100	0x3d4e220f	0.05032545
101	0x3d434588	0.047673732
102	0xbd511f90	-0.05105549
103	0x3d573fcd	0.05255108
104	0xbd506673	-0.050878953
105	0x3c9fb8f7	0.019497378
106	0x3bbbbfee	0.005729667
107	0xbd098e8d	-0.033583213
108	0xbc8e414b	-0.017365118
109	0xbcd2abe5	-0.025716731
110	0x3c2dfc38	0.010619216
111	0x3ca25871	0.019817563
112	0xbc97b588	-0.018519178
113	0xbc6811c7	-0.014164395
114	0xbd31a2ce	-0.043368153
115	0xbd0f11fd	-0.034929264
116	0xbcbb639b	-0.022874644
117	0x3cb9dd38	0.022688493
118	0x39ead1f1	0.00044788377
119	0x3cc79fec	0.024368249
120	0x3d0579d0	0.032586873
121	0x3caa5f54	0.02079741
122	0x3c4abd7a	0.012374276
123	0xbc6701d0	-0.014099553
124	0x3c9ff284	0.01952482
125	0xbd815bcc	-0.06316337
126	0xbbc2b6a0	-0.0059421808
127	0xbd010473	-0.031498384
128	0xbc1343fa	-0.008988375
129	0xbcd3f3c1	-0.025873067
130	0xb915bc3f	-0.00014279874
131	0xbc85b01c	-0.016319327
132	0x3d1e2918	0.03861341
133	0xbd65b278	-0.056078404
134	0x3d6b129c	0.057390794
135	0xbd176bfc	-0.036968216
136	0xbd999376	-0.07498829
137	0xbd83bc7c	-0.06432435
138	0xbcfb46d5	-0.030673424
139	0xbc9112aa	-0.017709095
140	0x3bbbee70	0.005735211
141	0x3cb42e5d	0.021994764
142	0xbcf9cf23	-0.030494278
143	0xbd1c482a	-0.03815476
144	0x3d0c3a8e	0.03423553
145	0xbd7f110c	-0.062272117
146	0x3d14bd94	0.03631361
147	0xbdb2d236	-0.08731501
148	0xbd0a767a	-0.033804394
149	0xbd7d1042	-0.061783083
150	0xbd221cfa	-0.039578415
151	0x3d0bdaa7	0.03414407
152	0xbccb9dbf	-0.024855493
153	0x3d07c717	0.03314885
154	0xbc6140e8	-0.013748385
155	0xbd269bfc	-0.040676102
156	0xbd4bba1a	-0.049738027
157	0x3d383604	0.04497339
158	0xbd5586b2	-0.05213041
159	0xbd3ed6a0	-0.0465914
160	0xbdca2023	-0.09869411
161	0xbccd6c06	-0.025075924
162	0x3ad36980	0.0016129464
163	0x3c0cbe3b	0.008590276
164	0xbdb45e79	-0.08807082
165	0xbd1fad28	-0.038983494
166	0xbc76b96e	-0.015058858
167	0x3d466087	0.0484319
168	0x3c94e394	0.018174924
169	0x3c158028	0.009124793
170	0x3cafc7ca	0.021457572
171	0xbd22ac21	-0.039714936
172	0xbd6bf3de	-0.057605617
173	0xb9497e00	-0.00019215792
174	0x3c3cbae9	0.011519172
175	0x3d6a00e6	0.057129763
176	0xbc65b9c3	-0.01402134
177	0xbd698a8a	-0.057016887
178	0xbd4dcd9e	-0.05024492
179	0x3cdcdeb7	0.026961667
180	0xbd55ef17	-0.052229967
181	0xbcb76a3c	-0.022389524
182	0xbcb71dfe	-0.022353169
183	0xbc301eb6	-0.01074951
184	0xbdbc5875	-0.09196559
185	0x3d0d2ebc	0.034468397
186	0xbc8d3928	-0.017239168
187	0xbcf64a14	-0.03006462
188	0x3cf9ae16	0.030478518
189	0xbda90f16	-0.082548305
190	0x3ca9f9b8	0.020748958
191	0xbd5520ce	-0.052033238
192	0xbc9a6f86	-0.018852007
193	0xbc989aa3	-0.018628424
194	0x3ce77442	0.028253678
195	0xbd6b26d9	-0.057410095
196	0xbcf7f108	-0.0302663
197	0xbd9451b7	-0.07242148
198	0xbb8ccb2e	-0.004296682
199	0xbd76bf40	-0.060240984
200	0xbd515d64	-0.051114455
201	0x3c1e47e5	0.009660696
202	0xbb77d160	-0.0037814006
203	0x3d5cea86	0.053934596
204	0x3d636054	0.055511788
205	0x3ca381ca	0.01995935
206	0x3cd679c2	0.026181106
207	0x3d5e0eea	0.054213442
208	0x3b881589	0.004152958
209	0x3d49c27e	0.049257748
210	0x3d0fc12c	0.035096332
211	0x3d2b4882	0.041817196
212	0x3c89dd36	0.016829114
213	0xbd3a5d6a	-0.045499243
214	0x3cd3d17e	0.02585673
215	0xbcc38af8	-0.023869976
216	0xbd549b4a	-0.051905908
217	0x3d1bef04	0.03806974
218	0x3c7b56e3	0.01534054
219	0xbcaff93a	-0.021481145
220	0xbc901baf	-0.017591326
221	0xbd6f1db3	-0.058377933
222	0xb9fc036c	-0.00048067735
223	0xbd9004f9	-0.070321985
224	0xbd8ecb39	-0.069723554
225	0x3d3fdb5b	0.046840053
226	0x3d585af4	0.052821115
227	0xbcc8fdf9	-0.024535166
228	0xbd789e9e	-0.060698144
229	0xbd7144d2	-0.058903523
230	0x3d0b0b12	0.033946104
231	0xb9ffa400	-0.0004875958
232	0x3cf87c54	0.030332722
233	0xbd55aed8	-0.052168697
234	0x3bf549c5	0.0074856007
235	0x3d314902	0.043282516
236	0x3cc45c7f	0.023969887
237	0xbcb27517	-0.021784348
238	0xbc1b8a20	-0.009493381
239	0xbd8d1ec4	-0.06890634
240	0xbcc92194	-0.024552144
241	0xbdae71a8	-0.08517772
242	0xbd61c890	-0.055122912
243	0x3cda1518	0.026621386
244	0x3d2626da	0.040564395
245	0x3c67de6d	0.0141521515
246	0xbd7bfd16	-0.06152066
247	0x3cf3303f	0.029686091
248	0xbd4e44d2	-0.0503586
249	0x3d61b4ac	0.055103943
250	0xbd52cc1b	-0.05146418
251	0x3ce6d131	0.028175922
252	0xbd2d6894	-0.04233606
253	0xbd1ffeb6	-0.03906127
254	0x3d20eaf7	0.03928658
255	0x3c6c6f7b	0.014430876

net.4.bias f4 [256]
0	0xbdbc679d	-0.0919945
1	0x3ed972b0	0.42470312
2	0xbd8fe649	-0.07026345
3	0x3f68b471	0.9090033
4	0xbd89c275	-0.06726543
5	0x3c97c1aa	0.018524963
6	0xbd95bfaf	-0.07311951
7	0x3f0f5b0d	0.5599831
8	0xbdc7b9b2	-0.097522154
9	0xbcee4069	-0.029083448
10	0xbdd8e350	-0.105902314
11	0xbcd491dd	-0.02594846
12	0xbf25aa54	-0.64713025
13	0xbce3e355	-0.027818361
14	0xbcf4782f	-0.029842464
15	0xbd943058	-0.07235783
16	0xbd97dc4b	-0.074150644
17	0xbdc77455	-0.097389854
18	0x3e0ab54c	0.13545722
19	0x3c00bf5c	0.007858124
20	0xbd7fd1fe	-0.062456124
21	0xbd4d577f	-0.05013227
22	0x3f80baac	1.0056968
23	0xbd2a98ea	-0.041649736
24	0xbcd5cf20	-0.026099741
25	0xbe156579	-0.1458949
26	0x3c04a770	0.008096561
27	0xbd638781	-0.05554915
28	0xbe0857df	-0.1331477
29	0x3eff1461	0.49820235
30	0x3ccf987b	0.025341263
31	0x3e95250f	0.29129836
32	0x3f19ac36	0.600284
33	0xbd90ebd0	-0.07076228
34	0xbdb17b07	-0.08666044
35	0xbddc78eb	-0.10765251
36	0x3f120c76	0.57050264
37	0xbcd885dd	-0.026431018
38	0xbce38a79	-0.02777599
39	0x3e927dfc	0.28611743
40	0xbdb56a35	-0.08858148
41	0x3f2f15f9	0.683929
42	0xbddbedc9	-0.10738713
43	0xbdca7f28	-0.098875344
44	0xbdba1466	-0.09085922
45	0x3d0af45a	0.033924438
46	0x3ebcff73	0.36913642
47	0xbd90e5e0	-0.07075095
48	0x3ea8b917	0.32953712
49	0xbd1ae343	-0.03781439
50	0xbd087cc3	-0.033322107
51	0x3bfa196e	0.007632426
52	0x3b86f6f9	0.004118797
53	0x3e7448cd	0.23855896
54	0x3bf900fa	0.0075989934
55	0xbd4d7b90	-0.050166667
56	0xbd9e905f	-0.0774238
57	0xbd3a4631	-0.045477096
58	0xbe05e2de	-0.13074824
59	0xbe9daebd	-0.30797377
60	0x3cdb0cde	0.026739534
61	0x3f1cc005	0.612305
62	0xbd8e7fb4	-0.06957951
63	0xbdcd1976	-0.10014622
64	0x3e105009	0.14093031
65	0xbdbbff22	-0.09179522
66	0x3e233155	0.15936787
67	0xbd9ccad4	-0.07655874
68	0xbec15950	-0.37763453
69	0xbda50f15	-0.08059517
70	0x3eab55d6	0.33463925
71	0xbd622781	-0.055213455
72	0x3f1d3f35	0.6142457
73	0xbd21f97a	-0.03954456
74	0xbd968a9c	-0.073506564
75	0x3eec6bf3	0.4617611
76	0xbd4e1eac	-0.05032222
77	0x3e86d4b2	0.2633415
78	0xbf420a67	-0.7579712
79	0x3efcaca1	0.49350455
80	0xbcd95300	-0.026528835
81	0xbc94d8f7	-0.018169863
82	0x3cbdc701	0.023166182
83	0x3ee8794c	0.45405042
84	0x3f1d98f0	0.6156149
85	0x3c600326	0.013672626
86	0xbd9bc6a5	-0.07606248
87	0xbe3126cd	-0.17299958
88	0x3e4563f9	0.19276418
89	0xbda9eec4	-0.08297494
90	0xbd8dc5ae	-0.0692247
91	0x3e9964fa	0.29959852
92	0xbdded5df	-0.108806364
93	0x3f3dbdc7	0.741177
94	0xbcb0deb8	-0.021590576
95	0xbd010c51	-0.031505886
96	0xbd877028	-0.06613189
97	0x3d001be3	0.031276595
98	0x3e7120b2	0.23547629
99	0xbe8a79b7	-0.27045986
100	0x3e58a8e9	0.21158184
101	0x3f2acca9	0.66718537
102	0xbd086b14	-0.033305243
103	0xbce2344c	-0.027612828
104	0xbb5c6d33	-0.0033634424
105	0x3e899ef2	0.26879078
106	0x3f37fb1e	0.7186755
107	0x3c07e32f	0.008293911
108	0x3f16914e	0.5881547
109	0xbe0cc082	-0.13745311
110	0x3c917411	0.01775554
111	0x3e9e7c51	0.3095422
112	0x3f421efb	0.7582852
113	0x3f6b9381	0.9202195
114	0x3da2447e	0.0792322
115	0xbdaf1a0d	-0.08549891
116	0xbf3e7ca4	-0.74408937
117	0x3e57db64	0.21079785
118	0x3dd466af	0.10371148
119	0x3bbe594a	0.005808984
120	0xbd86df6d	-0.06585584
121	0x3ec01093	0.37512645
122	0x3f376761	0.7164212
123	0x3e9f2e7a	0.31090146
124	0xbd6487ad	-0.055793453
125	0xbcdae8e8	-0.026722386
126	0x3c530e93	0.012881893
127	0xbcc75dc2	-0.0243367
128	0xbf1a4c8b	-0.60273045
129	0x3c3bbe9f	0.011459022
130	0xbdca43db	-0.09876224
131	0xbd9483e8	-0.072517216
132	0x3c791127	0.015201843
133	0xbd681094	-0.056656435
134	0xbec891e9	-0.3917382
135	0xbd0cd06b	-0.03437845
136	0x3f15b3cb	0.5847747
137	0xbd8df62a	-0.06931718
138	0x3b4476f7	0.0029978135
139	0x3cdf7ef5	0.027282218
140	0x3e9d2910	0.3069539
141	0xbca44be9	-0.020055728
142	0x3cd867a1	0.026416602
143	0x3da7b85b	0.0818946
144	0x3e66e48a	0.22548118
145	0x3cc5b932	0.02413616
146	0xbe407280	-0.18793678
147	0x39cb53c0	0.00038781576
148	0xbdc6db23	-0.09709766
149	0xbe870b7e	-0.26375955
150	0xbed30b2b	-0.41219458
151	0x3eadf81c	0.33978355
152	0xbdb68cb4	-0.08913556
153	0xbcefca5d	-0.029271299
154	0xbc4ae1c5	-0.012382929
155	0x3ebca9a6	0.3684818
156	0xbd1599f3	-0.03652377
157	0xbd936904	-0.071977645
158	0x3f08fe54	0.53513074
159	0xbdb38e74	-0.08767405
160	0x3e4f3996	0.20236811
161	0x3e85cc91	0.26132634
162	0xbd02798c	-0.031854197
163	0xbc68db63	-0.014212462
164	0x3f03c448	0.51471376
165	0x3e7beb08	0.24601376
166	0xbd6b23ea	-0.057407297
167	0xbc769507	-0.015050179
168	0xbd9f52f6	-0.077794954
169	0xbd86b737	-0.06577914
170	0xba1d2d0f	-0.0005995789
171	0x3f7cbc28	0.98724604
172	0xbc4fb134	-0.012676526
173	0x3f220141	0.63283163
174	0xbf439117	-0.76393265
175	0xbc93df81	-0.01805091
176	0xbf448ec0	-0.7678032
177	0x3ecf8af6	0.40535706
178	0xbdb462fe	-0.08807944
179	0xbd98d3e9	-0.07462294
180	0xbdb19311	-0.08670629
181	0x3be313b4	0.006929839
182	0x3eadf710	0.33977556
183	0x3d30650b	0.043065112
184	0x3f2889cf	0.6583528
185	0xbdb0e7d6	-0.08637969
186	0xbddcb099	-0.10775871
187	0xbbc703ef	-0.006073467
188	0xbdd74943	-0.105120204
189	0xbe973a4e	-0.2953667
190	0x3eafd8d6	0.3434512
191	0xbf0c7268	-0.5486207
192	0xbe819b6a	-0.25313884
193	0x3eb29ed4	0.348868
194	0x3e4163c3	0.18885712
195	0x3cebc72b	0.028781494
196	0x3f1b8769	0.60753495
197	0xbd919a9d	-0.07109568
198	0x3e799329	0.24372543
199	0x3cca19a5	0.024670431
200	0xbd4fadc4	-0.050702825
201	0xbbe43c82	-0.006965221
202	0x3efdf417	0.49600288
203	0xbc841ab4	-0.016126014
204	0x3b8c6cbd	0.0042854236
205	0x3d565763	0.052329432
206	0xbef8b8bd	-0.48578444
207	0xbe06d68d	-0.13167782
208	0x3e097ed8	0.13427293
209	0xba7795d8	-0.00094446307
210	0x3e02e80c	0.12783831
211	0x3ed62649	0.41826084
212	0xbdfc712a	-0.12326272
213	0x3bd11eb5	0.0063818344
214	0x3eff780e	0.49896282
215	0xbcc0cd56	-0.023535412
216	0xbd25aa70	-0.040445745
217	0x3d468472	0.048466153
218	0x3bad5f87	0.0052909288
219	0x3c11fa32	0.008909749
220	0xbc8fd10b	-0.017555734
221	0x3c430441	0.01190287
222	0x3c952021	0.018203797
223	0x3f63ddbf	0.8901023
224	0xbd08b08a	-0.033371486
225	0xbf194afb	-0.59880036
226	0xbc41eab0	-0.011835739
227	0x3f227309	0.6345678
228	0x3cb1b2e9	0.021691756
229	0xbc7d3639	-0.015454822
230	0xbc956b9c	-0.018239789
231	0xbe2eda4c	-0.17075461
232	0xbd8c9e24	-0.068661004
233	0xbd188eed	-0.03724568
234	0xbd0cef23	-0.034407746
235	0xbd436a5b	-0.04770885
236	0x3e815c41	0.25265697
237	0xbd73d6cf	-0.05953103
238	0x3c7cf9f9	0.0154404575
239	0xbda4974b	-0.08036669
240	0x3d7d4e6d	0.06184237
241	0x3c96e9aa	0.018421967
242	0xbd88debb	-0.066831075
243	0x3d5946c9	0.05304602
244	0xbd17ec33	-0.03709049
245	0xbd725ad1	-0.05916864
246	0x3ca0f526	0.019648146
247	0xbd698208	-0.057008773
248	0x3a776f14	0.0009438854
249	0x3c98cdad	0.018652761
250	0xbc95742d	-0.018243873
251	0x3b6ba25d	0.003595493
252	0xbc80df97	-0.015731616
253	0x3c40ac58	0.01175984
254	0x3d08a081	0.033356193
255	0xbd47d104	-0.048783317

net.6.weight f4 [128, 256]
0	0x3c9645d1	0.018343838
1	0xbe089675	-0.13338645
2	0xbc3bfbaa	-0.011473576
3	0x3e19a5d1	0.1500466
4	0xbd26d7e5	-0.040733237
5	0xbd3b22a4	-0.045687333
6	0x3c1d29cd	0.009592486
7	0xbf43030c	-0.76176524
8	0x3cb269c5	0.02177895
9	0x3c27627c	0.010216352
10	0x3c398917	0.011324189
11	0x3d2dd9c9	0.042444024
12	0xbd644982	-0.055734165
13	0x3d71e37b	0.059054833
14	0x3e2d7402	0.16938785
15	0x3d941fdf	0.072326414
16	0xbddb8c42	-0.107201114
17	0x3d178d32	0.03699989
18	0xbca2670f	-0.019824533
19	0x3d8bd003	0.068267845
20	0x3d80c32d	0.06287227
21	0x3d21bee9	0.039488707
22	0x3e52a145	0.20569332
23	0x397d3f5d	0.00024151565
24	0xbca4fa7c	-0.020138972
25	0xbcb6d026	-0.02231605
26	0xbcf9b62b	-0.030482372
27	0x3cfe5c53	0.031049883
28	0xb983aa9e	-0.00025113387
29	0xbc9015f7	-0.017588599
30	0x3c2ea0e0	0.010658473
31	0x3e40b5c0	0.18819332
32	0xbe100695	-0.14065011
33	0x3d6ca899	0.057777975
34	0x3d8db158	0.06918591
35	0x3d456001	0.04818726
36	0xc02bb3fd	-2.6828606
37	0x3d780075	0.06054731
38	0xbd4a44d2	-0.04938204
39	0xbf8078fb	-1.003692
40	0x3d4820f7	0.048859563
41	0xbda69e9c	-0.08135721
42	0x3d8983a4	0.067145616
43	0xbd32b670	-0.043631017
44	0xbc33b47a	-0.010968322
45	0xbd3a5efd	-0.045500744
46	0x3e275e45	0.16344555
47	0x3cd17e13	0.025572812
48	0xbdae03c2	-0.084968105
49	0x3d6ee580	0.058324337
50	0xbcc035bc	-0.023463123
51	0x3d991c51	0.07476104
52	0xbc61d96f	-0.01378475
53	0x3f2fac62	0.6862241
54	0x3d25f024	0.04051222
55	0x3bc1a64f	0.005909718
56	0xbd2d3034	-0.0422823
57	0x3d632d84	0.05546333
58	0x3d2f2faf	0.042770084
59	0xbe001ef0	-0.12511802
60	0x3c241cee	0.010016663
61	0xbedf3fde	-0.43603414
62	0x3ca4e2c6	0.020127665
63	0x3cc17a69	0.02361794
64	0xbef37ce1	-0.47556213
65	0x3db357a8	0.087569535
66	0xbd968398	-0.07349318
67	0x3d526bae	0.051372223
68	0xbe2d6479	-0.16932859
69	0x3ce4ae3c	0.027915113
70	0xbd19f527	-0.03758731
71	0x3c37b694	0.011212964
72	0x3d926ec5	0.07150034
73	0x3ca91718	0.020640895
74	0xbd8d6c7b	-0.06905457
75	0xbcc5534e	-0.024087574
76	0x3c599461	0.013280005
77	0x3ec11882	0.3771401
78	0x3c63dd2e	0.013907714
79	0x3d656042	0.056
80	0xbd2dfd7b	-0.042478066
81	0x3d5041eb	0.050844114
82	0xbbcd1fca	-0.006259893
83	0x3e830775	0.25591627
84	0x3f1c3dc9	0.61031777
85	0x3cae964a	0.021311898
86	0xbad9ebbc	-0.001662604
87	0x3e1ad16c	0.1511895
88	0x3c0c3af1	0.008558975
89	0xbd22098a	-0.03955988
90	0x3d1d41e8	0.03839293
91	0xbd3a427f	-0.045473572
92	0xbe104110	-0.1408732
93	0xc0758270	-3.8360863
94	0x3b3a6822	0.0028443416
95	0x3d642e35	0.05570813
96	0x3a45385c	0.0007523352
97	0xbcd82aea	-0.02638765
98	0x3b620159	0.0034485667
99	0xbf31fd9f	-0.6952762
100	0x3e153fa4	0.14575058
101	0x3ec2478b	0.37945208
102	0x3ca87abd	0.020566339
103	0xbcbb36e6	-0.022853326
104	0xbcf07bf9	-0.02935599
105	0x3d32fffc	0.043701157
106	0xbe958c17	-0.29208443
107	0xbd263917	-0.04058179
108	0x3e9de095	0.30835405
109	0xbb337833	-0.0027384877
110	0xbd65642c	-0.056003734
111	0x3edc3a23	0.43013105
112	0xbe3aa351	-0.18226363
113	0x3ba52494	0.005039761
114	0x3c42896e	0.011873586
115	0xbd4f0755	-0.0505441
116	0x3ea90677	0.33012745
117	0xbda2fa53	-0.07957902
118	0xbdb3441f	-0.087532274
119	0x3d1c1b1e	0.0381118
120	0x3d564154	0.052308396
121	0xbd8b092b	-0.06788858
122	0xbe3b462e	-0.1828849
123	0x3e4a7a47	0.19773208
124	0x3d3f8b2a	0.046763577
125	0xbd93753d	-0.07200096
126	0xbb932d04	-0.0044914503
127	0xbc86c544	-0.016451485
128	0xbd870ba9	-0.06594021
129	0x3d49fcc4	0.04931332
130	0x3d52645a	0.051365234
131	0x3d018179	0.031617615
132	0xbd7377ba	-0.059440352
133	0x3d38f812	0.045158453
134	0xbdd74543	-0.105112575
135	0x3ba72615	0.0051009753
136	0xbe83bc5d	-0.25729647
137	0x3d60d16f	0.05488723
138	0xbd7c9c62	-0.061672576
139	0x3d44db38	0.048060626
140	0xbf97170f	-1.1803912
141	0xbf82b68e	-1.0211961
142	0xbd8814fe	-0.06644629
143	0x3c744b4d	0.014910531
144	0x3bb65cba	0.005565253
145	0xbd21e278	-0.039522618
146	0xbd099729	-0.033591423
147	0xbca6ffd0	-0.020385653
148	0x3c613b1e	0.013747005
149	0x3ea7df0d	0.32787362
150	0x3ce1a758	0.027545616
151	0xbbb3cc3a	-0.005486992
152	0x3d8361ad	0.064151146
153	0xbcbc07e8	-0.022952989
154	0x3c9d8e14	0.019232787
155	0x3f2b44a1	0.66901594
156	0x3dac76ba	0.08421083
157	0xbd2d0b26	-0.04224696
158	0xbecc80fb	-0.39942154
159	0x3e512223	0.20423178
160	0x3ddcbffc	0.107788056
161	0x3ec16aac	0.37776697
162	0x3b73f226	0.003722319
163	0x3ca8f467	0.020624353
164	0x3d937ee1	0.072019346
165	0x3cd031a0	0.025414288
166	0xbf5fc7da	-0.87414324
167	0x3e97a5d6	0.2961871
168	0x3c9f9821	0.01948172
169	0x3ca3cb90	0.019994527
170	0xb91afb9d	-0.00014780318
171	0xbe04da1d	-0.12973829
172	0xbd44e706	-0.048071884
173	0x3f0cee6b	0.55051297
174	0xbc773b63	-0.0150898425
175	0xbc3f7fc8	-0.01168818
176	0x3c965b60	0.018354118
177	0xbed78e48	-0.4210074
178	0xbdade352	-0.084906235
179	0xbd222738	-0.039588183
180	0x3ccb8fff	0.024848936
181	0x3c44a49f	0.012002139
182	0x3b87554b	0.0041300408
183	0x3d74b97c	0.059747204
184	0xbe023415	-0.1271518
185	0xbd54cc18	-0.05195245
186	0xbf2d7a7d	-0.6776503
187	0x3d0ee369	0.034884844
188	0x3d7145c5	0.058904428
189	0x3e755ed6	0.23961958
190	0x3f1d4eea	0.6144854
191	0x3dd9f43c	0.10642287
192	0xbe8670b6	-0.26257867
193	0x3e830276	0.25587815
194	0x3c6cf642	0.014463009
195	0xbbc211f8	-0.005922552
196	0xbf46e909	-0.77699333
197	0xbcbf1c6c	-0.023328982
198	0x3d6d6827	0.057960656
199	0xbd992029	-0.07476837
200	0xbc56cb86	-0.013110047
201	0xbd10dc88	-0.035366565
202	0xbe252196	-0.16126093
203	0xbd0b2194	-0.03396757
204	0x3b1e4c40	0.0024154335
205	0xbd600eb9	-0.05470154
206	0x3d8e5fc0	0.069518566
207	0xbd831102	-0.06399728
208	0x3cf2349c	0.029566102
209	0xbc207407	-0.009793288
210	0xbf163184	-0.58669305
211	0xbdb06e3c	-0.086147755
212	0x3d5aae86	0.053389095
213	0xbd31cb6e	-0.043406896
214	0x3e938df5	0.28819242
215	0x3d1c1c06	0.038112663
216	0x3bdd4075	0.0067520686
217	0x3d30db59	0.043177936
218	0x3d161e8c	0.036650226
219	0x3d64c1fc	0.05584906
220	0x3cb42b51	0.021993311
221	0x3cf585cb	0.029971024
222	0xbcf1fbd5	-0.029539028
223	0x3e1fc908	0.15604031
224	0x3c4e2bd4	0.012583692
225	0x3cdbc2b3	0.026826238
226	0x3c993494	0.018701829
227	0x3dbf751a	0.09348507
228	0xbcb4ef10	-0.02208665
229	0x3d9289e8	0.0715521
230	0x3d881203	0.066440605
231	0xbc1fad0c	-0.009745847
232	0x3b025a06	0.0019890084
233	0x3ca89599	0.020579146
234	0xbcbb0042	-0.022827271
235	0xbd3482a0	-0.044069886
236	0x3e8d7998	0.2763183
237	0x3de1d2a6	0.11026506
238	0x3d1d376c	0.038382933
239	0xbca8b303	-0.020593172
240	0xbccd2ddf	-0.025046287
241	0xbd96054e	-0.073252305
242	0x3d73fab5	0.059565265
243	0x3d8b8563	0.06812551
244	0x3d4abf1e	0.04949867
245	0x3d5a4d95	0.053296644
246	0xbf24876b	-0.6426913
247	0x3b8be1aa	0.0042688446
248	0x3c6d63d4	0.014489133
249	0x3b5fca54	0.0034147697
250	0x3c9fa544	0.019487984
251	0x3ce097a5	0.02741606
252	0xbd89ca9a	-0.06728096
253	0xbc9b6645	-0.018969664
254	0xbd5d75b9	-0.054067347
255	0xbc45fea6	-0.012084639
