prototyping/AntennaDesign/metaprototyping/Test3/s11_model.pt (torch, 105513 bytes, 7 tensors)

net.0.weight f4 [128, 4]
00000000: 1a13 f5bd 5f04 873e b800 75bd eb83 cb3c
00000010: fac6 983e eaf8 00be 1ea0 20be 1a6c 24bf
00000020: 5bb2 10bf 1908 21be ffd6 22bf caa8 d33e
00000030: efd7 debe 36e6 19be 2234 68be 7397 143f
00000040: a742 ddbe 4212 cb3e e08a ce3d 2f83 8d3e
00000050: 892d 54be a921 2b3e 34fc 64be 8971 193e
00000060: a6f8 c1be 00a5 7abe b87a a7bd 9857 f4bd
00000070: 2cd3 54be 7c4c 64be c8dc 3c3e d87b 4abe
00000080: d4fb d93d 1096 8abe f3d2 c5bc ddfd 853e
00000090: 6d00 68be 7f8b 6e3e f23d c0be 7444 b23e
000000a0: 2ea1 753d b512 0dbd 977c c03d cd2e 1bbe
000000b0: a66b edbe 4e8b b2be 403a 75be d0c3 ebbd
000000c0: 1fac 83be 22d3 f63d 0c88 203e 6fe6 2b3e
000000d0: 1621 c73d c2ba ae3d b147 ba3c 676c 38c0
000000e0: 0474 bbbe 0011 87bb 4881 0cbe 0c0f 2c3e
000000f0: e0f4 ebbe 5454 fcbe 584b 903d 7e82 a93e
00000100: 440e 063e c82e 0dbe e0ca f1be 297b 9d3e
00000110: fbb3 5a3e 4ad6 02be 455c 923d 4dde 8139
00000120: 2067 69be f89b 67be 70a9 02bd acc1 59be
00000130: f3fa 20be 2313 8e3d d94d 1dbf 0fb2 e4be
00000140: fed6 a0be f0e3 e9be 9098 65bd 4cfc d5be
00000150: 7555 163f 483f cebe 4a57 813e d699 0fbf
00000160: 3437 013e d73c 5d3d f071 3c3d 253b 2d3c
00000170: 62c2 dfbe 8809 f6bd c283 ebbe 8442 a73e
00000180: d6db 07bf 71d8 9a3e e165 1ebf e7f8 bcbe
00000190: 0166 c2be 53e3 c13e 94c8 e0bc de00 8abe
000001a0: 6b59 bc3c 1eb8 363e 08d2 983d 4bd6 aabf
000001b0: 7e55 b4be 28e1 94be 5a47 e93e 700c 4abe
000001c0: 5e72 793d 9954 a53c e152 df3d d6ec 883e
000001d0: 05b4 0bbd 526f ff3d 0857 edb7 364d 553e
000001e0: 53bc 813e 2dd3 27bd da01 ef3e 59f0 b13e
000001f0: a883 963e efb6 c8be abec c2bd e0a2 9e3e
00000200: 8da6 b2bd 57ca 0f3e 2d89 893e ee45 943e
00000210: d80e 4abe 6081 dabe 7089 f33d 5c3b c8be
00000220: 8978 483d d1d6 8e3d b38f 043a fe53 a5bf
00000230: 4c33 8ebe 50e3 0ebe 088f f13e 10d0 753d
00000240: de37 d93d fdb1 5cbc dbb7 213e d0b0 a73e
00000250: 3a1a bdbe 72e0 f8be b0f6 b53e 583d f4be
00000260: 972c 883e 3966 04bf 56ff 35bc 4ea6 af3e
00000270: c055 f5bc 486f 0abe 2ce9 8ebe 5e8c 8bbe
00000280: 53f8 9c3e e513 71be 6c97 5dbe 5ef3 e03e
00000290: 2a93 f93d 70fe 353d 7e51 cb3e ecf2 0abe
000002a0: 2090 b9be 987b c0bd 4abf ff3e d0bc 483e
000002b0: 29c8 af3e 360d cdbc 18cc a23f d590 09bd
000002c0: e085 e0bc 6850 e1be 6a2e f5be 4465 abbe
000002d0: 6241 07be ad0e 973e 3dd5 d8bd df40 e0bd
000002e0: ac5c dc3d 95c2 f7ba 5bdd 73be 8da1 e8be
000002f0: 008a e13c ceb6 99be 6871 aa3d d69d a5be
00000300: ac9b a1be 9ef4 94be 642a 58be 00b9 823b
00000310: 8664 febe fdd2 953e 927f 13bd b81e 043f
00000320: bf1c 63be 19d6 0dbe 6b23 5abe d88d 073f
00000330: 538a 343c 9875 c93b 24bb 81be d7f3 013e
00000340: be65 06bc c4f9 633e ae7f ca3e 26eb 15bf
00000350: 475d 60bd f6dc 963c 0350 3bbe 3bb6 b43c
00000360: 47ec c8be da05 ab3e 885b a6be f323 c7bd
00000370: b9de 2b3e 226f 9bbd 796c d23d e29e e0ba
00000380: 9760 853e 78bd f1bd 2be6 273d d473 a83e
00000390: 6543 b83d ca45 07bd 228d 82be c4f2 923e
000003a0: 9c17 10be 1023 633d d893 e4bd bab5 99be
000003b0: 0884 233e c201 88be 90d9 b1bd c008 7fbd
000003c0: aa91 fbbd 5f46 263e 1d73 a3bc 936a 993e
000003d0: 4324 e43a 9984 873d 1eb3 003e 9abd 68be
000003e0: 0a22 8d3e 33fa 5dbd 8c76 76bd 75f8 1bbf
000003f0: 022a 653e 517e a23c 12f6 583e 9574 ebbe
-0.11966534 0.26370522 -0.05981514 0.024843177 0.29839307 -0.12594953 -0.1568608 -0.6422745
-0.5652215 -0.15725745 -0.6360931 0.41339713 -0.4352412 -0.15029225 -0.22676137 0.58043593
-0.43214914 0.39662367 0.10085082 0.27639148 -0.20720495 0.16712059 -0.22361833 0.14984716
-0.37885016 -0.24477005 -0.081777036 -0.1193077 -0.2078368 -0.22294801 0.18443596 -0.19773805
0.106437355 -0.27067614 -0.02414844 0.26170245 -0.22656412 0.23295401 -0.3754726 0.3481785
0.059968166 -0.03444167 0.093987636 -0.15154572 -0.46371192 -0.34871906 -0.23948002 -0.11511958
-0.25717255 0.12051989 0.15676898 0.16787122 0.097231075 0.08531715 0.022739263 -2.8816164
-0.3661195 -0.0041218996 -0.13721192 0.16802615 -0.46085262 -0.49283087 0.07045621 0.3310737
0.1309138 -0.13787377 -0.47225094 0.30758026 0.2135772 -0.12777057 0.07146505 0.00024770424
-0.22793245 -0.22618091 -0.03189987 -0.21265286 -0.1572073 0.06937244 -0.6144691 -0.44667098
-0.31414026 -0.45681715 -0.056053698 -0.4179405 0.5872415 -0.40282655 0.2526191 -0.5609411
0.12618715 0.0540131 0.046007097 0.010573183 -0.4370299 -0.12013537 -0.4599896 0.32667935
-0.5306982 0.30243257 -0.61874205 -0.36908647 -0.37968448 0.37868747 -0.027439393 -0.26953787
0.022991857 0.17843673 0.07461935 -1.3346647 -0.35221475 -0.2907803 0.4556225 -0.19731307
0.060900085 0.02018194 0.1090448 0.2674319 -0.034107227 0.124724045 -2.8293129e-05 0.20830235
0.25338992 -0.040972877 0.466811 0.34753683 0.2939732 -0.39202067 -0.09517797 0.3098364
-0.08723173 0.1404203 0.2686247 0.28959602 -0.19732225 -0.4267683 0.118914485 -0.39107788
0.048943076 0.06974567 0.0005056813 -1.2916257 -0.2777351 -0.139539 0.47179437 0.060012877
0.10606359 -0.01347017 0.15792792 0.32752085 -0.36934072 -0.48608738 0.3553977 -0.47703052
0.2659652 -0.5171848 -0.01110824 0.34306568 -0.029948115 -0.13519013 -0.2791227 -0.2725553
0.30658206 -0.23542745 -0.21639794 0.43935674 0.121862724 0.044432104 0.3971061 -0.1356923
-0.3624277 -0.09398574 0.4995063 0.19603276 0.34332398 -0.025030714 1.2718534 -0.03358539
-0.027407587 -0.44006658 -0.47886974 -0.33475697 -0.13208535 0.29503384 -0.10587547 -0.10949873
0.10759863 -0.0018902594 -0.23814909 -0.45435753 0.027531624 -0.3002228 0.08322412 -0.32346982
-0.3156408 -0.29092878 -0.2110992 0.003989339 -0.49686068 0.29262534 -0.036010332 0.51609373
-0.22178935 -0.13851203 -0.21302573 0.5295081 0.011019307 0.0061480515 -0.2533809 0.12690674
-0.008202968 0.22263247 0.39550537 -0.58561933 -0.054776456 0.01841591 -0.18292241 0.02205955
-0.39242765 0.33402902 -0.32491708 -0.09723654 0.1678418 -0.07589556 0.10274596 -0.0017137195
0.26050255 -0.118037164 0.04099099 0.3290087 0.089972295 -0.03302554 -0.254983 0.2870084
-0.14071506 0.05545336 -0.111610115 -0.3002146 0.15968335 -0.2656384 -0.08684075 -0.062264204
-0.122836426 0.16237782 -0.019952351 0.29964122 0.0017405826 0.06617088 0.12568328 -0.22728577
0.27565032 -0.054193687 -0.06017165 -0.6092599 0.22379306 0.019835623 0.21187618 -0.45987383

net.0.bias f4 [128]
00000000: 5a3d 12c0 8052 893f 74dd 0b3f e144 543f
00000010: 68a5 07c0 03e1 b53f 5876 ce3d b828 d5be
00000020: 2ac8 f03f f6eb 9bbf fda8 0040 e451 713e
00000030: 2ba7 0740 4786 31be 1663 e83e 889e c4be
00000040: 1791 e53f 71bb 0540 3625 fe3e 264d df3f
00000050: 3034 b73d ef65 12bf e1bd 07c0 d0cf dabe
00000060: fb86 b1bf 6158 bc3f 31c4 563f e8b8 a33d
00000070: 8bee f9bf 59d5 9bbf f46c a5bf 43e6 59bf
00000080: ab48 9cbf 74c6 ccbe 44d6 a63e 7ad6 b9be
00000090: ad19 ccbf d6fd f7be fb9f cc3f 5069 9dbe
000000a0: afab b7bf e361 7cbf 2474 84be 884e d8bf
000000b0: 74ec ff3e 888f d7bf b9ce ce3f 1a99 d03e
000000c0: b0f3 e03d 22e4 1c40 2d29 f93f 1540 a5bf
000000d0: bab9 0140 df77 cf3f 6d0d b23f 4f71 63be
000000e0: 0397 dfbf f657 f9bf 381e 16be 4c54 acbe
000000f0: 5b35 edbf 412b cb3f f3ac c83f 8d5a d53f
00000100: f976 a6bf 9101 843e 2547 543b 5dca f03f
00000110: 9940 dc3f d61e 99be 5b6e febf 466a 843f
00000120: 186f e0bf b80f 75be 0efc 293f 4796 ccbf
00000130: f87c e3bf c095 07be f74d 933f 4385 ca3f
00000140: bcbc c6bf 90e5 753e 401c 0b40 301b 01c0
00000150: 19a3 91be 14dd cbbf 8f73 b7bf 4104 a63f
00000160: 93a6 00bf ccb1 853e 9e52 f7bf ca1d fdbe
00000170: d495 533e dae6 793f 5d8b cb3e de34 b53f
00000180: 7e10 843e 30b6 4fbf 568b df3f 76f4 813e
00000190: 29b7 733f f939 ac3f fcee bf3e 323b 923f
000001a0: 454c 6e3f 5590 a1bf ffe7 4fbf 6e05 47bf
000001b0: 84ac d23f 2883 debf 6f4b c93f 52fd 6e3e
000001c0: 245d 483e 4450 5b3f f043 99bd 8a33 f1bf
000001d0: 98ca 7abe d29c 343f 6e17 7bbf 809a 39be
000001e0: f0f2 3cbf aaa8 a53e 6189 cebf e094 d33d
000001f0: 13ad aa3f a279 13c0 f4b7 f4bf f11d 94bd
-2.2849946 1.0728302 0.54634786 0.829176 -2.1194706 1.4209293 0.10081166 -0.41632628
1.8811085 -1.2181385 2.0103142 0.23566395 2.1195781 -0.17336379 0.45388097 -0.384022
1.7934903 2.0895655 0.49637765 1.7445419 0.08945501 -0.5718679 -2.1209643 -0.42736673
-1.3869318 1.4714471 0.83893114 0.079942524 -1.9525923 -1.2174484 -1.2923875 -0.85116976
-1.2209677 -0.39995158 0.32585347 -0.36296445 -1.5945336 -0.4843585 1.5986322 -0.3074441
-1.4349269 -0.98586863 -0.25869858 -1.6898966 0.49985087 -1.6840677 1.6156837 0.40741807
0.1098398 2.4514241 1.9465691 -1.2910181 2.0269608 1.6208457 1.3910347 -0.22211193
-1.746796 -1.9479969 -0.14659965 -0.33658063 -1.8531908 1.5872575 1.567778 1.6668259
-1.3005058 0.25782445 0.0032391038 1.8811756 1.7207214 -0.29906338 -1.9877428 1.0344932
-1.7533903 -0.23931777 0.6640023 -1.5983361 -1.7772512 -0.13240719 1.1508168 1.5821918
-1.5526347 0.24013352 2.1735992 -2.0172844 -0.28444746 -1.5926843 -1.4332141 1.2970048
-0.5025417 0.2611221 -1.9322088 -0.4943679 0.20662624 0.97617877 0.39754763 1.4156759
0.25793833 -0.8113737 1.7464397 0.2538182 0.95201355 1.3455192 0.37487018 1.1424315
0.9308513 -1.2622172 -0.8121337 -0.7774266 1.6458898 -1.7383776 1.5726146 0.23338822
0.1956678 0.8566935 -0.07483661 -1.8843853 -0.24491346 0.7055179 -0.98082626 -0.18125343
-0.73808193 0.32355243 -1.6135675 0.1033113 1.3334068 -2.3042989 -1.9118638 -0.07232273

net.2.weight f4 [128, 128]
00000000: 89ff c0be 2b70 aa3e 35f5 15be 6d91 65bf
00000010: f1fc 26bf 7fad 993e 3fd5 b7bc ae13 e5bc
00000020: ae9a 253f 9327 13be b79a 393f 4b9a 263c
00000030: 53dd 503f fccf bf3d 8142 99bd 12f0 6a3d
00000040: a931 643e a76d 883e 0275 9b3c d0e6 3e3e
00000050: 8e69 9abd 6e37 97be 8f8b 19be b717 45bd
00000060: a717 55bf 49c6 173f a243 083f 2043 623d
00000070: c7f0 fabe f544 dcbd 80a7 60bc 4f71 bc3d
00000080: 7a93 84be 06ed 6a3d b8ef af3e 60ce 59bd
00000090: 5e4d 52be 07b5 77bc 37e5 7e3d 5eb4 eebc
000000a0: a2a6 003c 8bc6 023d e6ff f13c 74c9 f73b
000000b0: b5be ac3d f418 d3bd af69 133e 7851 b1bc
000000c0: e97d 3d3c 5e37 8e3e ee4e e63e 8053 f1be
000000d0: 2a3c 8a3d bbb0 cc3e 2ca4 ad3d e2c8 f03b
000000e0: 758c ddbe 8132 2abf 7fdb a93d f262 79bd
000000f0: a721 c4be 4268 963e 6a35 883e a2dd 533e
00000100: c03a cebd df0d d03e 71ab 08be 1e31 ef3e
00000110: e8b5 d83d a281 a23c a7f6 56bf 3a8b 263e
00000120: 64ea 21bf b3be 8e3d ec69 f83d 8079 b9be
00000130: bd9a e0bd 61bc acbd a51c 8f3e 1ea1 73be
00000140: 042f d9bd 7f8e 98bd 7171 c63e f132 62be
00000150: df37 fbbe e5c4 ccbe b0a8 20be f4cd 4f3e
00000160: 501a 813d 86bf 7a3e 3ce3 5dbe 8dc5 043d
00000170: 7368 29bc 3402 13bd 37e3 a3bd c23d 1e3e
00000180: 4039 023f d2da 46bd 53fb 24c0 0441 d1bc
00000190: f903 093e faeb 783e 3408 38bd dc05 5c3e
000001a0: a434 5ebe 63d4 b4be 69b1 053d 6ac7 bfbe
000001b0: 1949 7b3e 6f50 01bf 8bdd 313d 1a1d b3bd
000001c0: 4042 ac3d 7d84 bf3c 91a2 a03c 0405 6cbe
000001d0: 8c61 113d c1e8 153d e143 9cbe a12d 533c
000001e0: 17e6 083d df53 bfbc dcc7 60bd 91b7 cdbc
000001f0: b878 8c3e 974d 96be e76e d5bd 5138 c43e
00000200: ae34 ca3d bf9d 3abd 35ed b13e 64fe 093f
00000210: c35b 763e d7c5 f4bc 41ec 54bd d568 47bd
00000220: fbea d7bc b640 d5bd 9ce0 48be f547 6ebd
00000230: cb71 283f 6a61 403d 7c33 883d fd48 863c
00000240: ea22 c8be 0422 b1b9 f904 783d bac0 b7be
00000250: 95ab adbd 24df 49be d11d 11bc d2ab 473d
00000260: 8836 ddbe 640f ca3c 4b27 5d3d 650b 973d
00000270: e457 bb3d 3545 9b3d 5e7f d73c 841f b8be
00000280: 0f91 84bc 28c3 1dbd 454c c9be afbe 53bd
00000290: 41a7 f43d ab63 9e3d 8efb 5ebe 7806 753d
000002a0: 8aa6 1abb 6353 0f3b 092c 643d 6bd6 4bbe
000002b0: ab62 7e3d 9749 98bd 1515 5cbd ac8b 8ebd
000002c0: 430e 8a3d 27e8 1fbe 8bf8 8dbe 32e6 45be
000002d0: 00b3 593b 90c2 623c d648 5d3e 372f 0a3e
000002e0: 70b1 903e 92d4 9bbd 4ae9 4c3d 7774 abbd
000002f0: d468 7c3c 1660 793d 8d17 f0bd d248 a8bc
00000300: 4d96 c13d fa87 55bf 3325 fa3e 74d8 83bc
00000310: 096e 2f3c 9d68 473d 4a0d f23d 6281 143e
00000320: 2426 2dbd 8f3c ae3b 7363 e4bd 9ec0 433d
00000330: dff2 223d 7563 ad3d ae0d 133e b547 20be
00000340: 28e1 e33d 7281 a83d 5f97 9f3c 076b a2bd
00000350: 8d9d e53e 61bc 08bf 5afb 8c3e 2e5a adbb
00000360: a6e4 423d 8add f83d bc4f 913d 648a 68bc
00000370: 25b2 b03d b78c 063e e5a5 553e c7a6 53be
00000380: d2ff fd3d 6f24 9c3d eef5 c43f a353 5fbd
00000390: c47e 453d 72dd 5a3e 2744 9a3d 10a5 8f3d
000003a0: d8a2 1dbe bb20 6b3c 4add 2a3e 8596 a0bd
000003b0: a1bc 6d3c c57a 4cbe 70e0 f53d 3439 753e
000003c0: 7c00 b43d 3971 7d3d 9e7e a93d 408c f83d
000003d0: d07d 52bd e21c e1bd a2a6 86be 62ee a73d
000003e0: 3d8c 08be 5ac6 96bc 1ea9 053e 9422 85bd
000003f0: abd4 c8bc f7dc 373d e087 983d a669 003d
-0.37694958 0.33288702 -0.1464432 -0.8967503 -0.6522971 0.3001518 -0.02244055 -0.027963486
0.6468915 -0.14370565 0.725017 0.010168622 0.81587714 0.09365842 -0.07483388 0.057357855
0.22284569 0.26646158 0.018976692 0.18642735 -0.07539664 -0.29534477 -0.14994644 -0.04811832
-0.83239216 0.59286934 0.532282 0.055239797 -0.49011824 -0.1075534 -0.01371181 0.092012994
-0.25893766 0.05735495 0.34362578 -0.05317533 -0.20537326 -0.015118844 0.062230315 -0.02913874
0.007852228 0.031927627 0.029540967 0.007561857 0.08434812 -0.10307494 0.14395784 -0.021645293
0.011565664 0.27776617 0.44982094 -0.47134018 0.06749757 0.39978585 0.08478579 0.007348166
-0.43271223 -0.6648331 0.08293819 -0.060885377 -0.38306925 0.29376417 0.26603252 0.20690015
-0.100697994 0.40635583 -0.1334665 0.4671716 0.10581571 0.019837204 -0.8397011 0.16264048
-0.63248277 0.06969967 0.12129578 -0.3622551 -0.10967014 -0.08434368 0.27951542 -0.2379193
-0.10604671 -0.07449054 0.38758424 -0.22089745 -0.49066064 -0.3999397 -0.15689349 0.20293409
0.06303847 0.24487123 -0.21668714 0.03241496 -0.010339844 -0.035890773 -0.08002322 0.15453246
0.50868607 -0.048548527 -2.5778396 -0.025543697 0.13380422 0.24308768 -0.044929698 0.2148661
-0.21699768 -0.35318288 0.032639895 -0.37456828 0.24539603 -0.50513357 0.04342417 -0.08745785
0.08411074 0.023378605 0.019608768 -0.23048788 0.03549342 0.036598925 -0.30520537 0.012889297
0.033422556 -0.023355423 -0.0548781 -0.025111945 0.2743585 -0.2935607 -0.104215436 0.38324216
0.09873329 -0.045560595 0.34751287 0.53903794 0.24058442 -0.029879494 -0.05198312 -0.04868396
-0.026357165 -0.10412733 -0.19616932 -0.058174092 0.65798634 0.0469679 0.06650445 0.016392225
-0.39089137 -0.00033785414 0.060551617 -0.35889226 -0.08479992 -0.19714028 -0.008857206 0.048747845
-0.43205667 0.024665542 0.05399255 0.0737522 0.09147623 0.075815596 0.02630585 -0.35961545
-0.01618245 -0.038516194 -0.39316002 -0.051695522 0.11945964 0.07733854 -0.21775648 0.059820622
-0.00235978 0.002186977 0.055706058 -0.19906013 0.062105816 -0.07435911 -0.053731043 -0.06960234
0.067410015 -0.15615903 -0.27728686 -0.19326094 0.0033218265 0.013840333 0.21609816 0.13494574
0.28260374 -0.07608904 0.05002717 -0.08371823 0.015405852 0.06088265 -0.11723242 -0.020542536
0.09452496 -0.8341061 0.48856506 -0.016094424 0.010707387 0.04868375 0.11818941 0.1450248
-0.0422727 0.0053172777 -0.11151781 0.047791116 0.0397824 0.084662355 0.14360687 -0.15652354
0.111269295 0.08227815 0.019481359 -0.0793057 0.44846764 -0.53412443 0.27535516 -0.0052902913
0.047581337 0.1215163 0.07095286 -0.014193151 0.086277284 0.13139616 0.20864065 -0.2066909
0.124023095 0.07624137 1.5387552 -0.05452312 0.048216596 0.21373537 0.0753253 0.07013905
-0.15394151 0.014351065 0.16685978 -0.07841209 0.014510305 -0.19968708 0.12005699 0.23947603
0.08789155 0.061875556 0.082761034 0.121361256 -0.051389515 -0.10991837 -0.26299006 0.08199765
-0.13334747 -0.018405128 0.13052794 -0.06500736 -0.02451547 0.044888463 0.07447791 0.031350754

net.2.bias f4 [128]
00000000: 735a 743f a45a 0bbf 5ed8 7f3d fdc5 6cbc
00000010: 0d36 f0bd 1300 05bd 7ed0 e53c 865e b6bd
00000020: 868a 26bd 0538 f7bc 5ef5 723d b056 853f
00000030: 8ef5 e4bd 2bcb 3e3d 8c9d d83c 1e8f 66bf
00000040: 0f08 e5bd 6e0a 00bf 3ec9 f1be 190b 153f
00000050: 278a 9a3f 21cf 8a3e 4b55 ca3e c4ad 023f
00000060: d2c4 f4bc 2e73 1dbd 74fe 833e e181 1cbd
00000070: 7986 7b3d 8ec3 813f 5e29 23bf 1092 f93e
00000080: f2b7 2bbd 2dc8 f3bc 192c 233a c829 97bd
00000090: dac1 0abf 6539 84bc 4b50 80bf 8471 67bf
000000a0: adbb 10bf 56c9 6b3f 136f c13e 5067 6d3c
000000b0: 60f5 aebd 7c49 71b7 a322 39bd 621a 6dbe
000000c0: 4bb0 cbbd a257 183f 8a97 20bd a8d8 22bc
000000d0: 100a b6bd 78f1 59bd 39ab cebf 099e 553f
000000e0: 4f61 bcbc 373b 73bd ec10 c0bd 9f15 26bf
000000f0: 2d11 cfbd 756b 4cbd 7368 85bc f795 28bf
00000100: d957 5d3f 95a7 9abd 1ec4 71bd 535a 9cbd
00000110: 7bf6 aebd 1d7a 033c 9d8e 61bd 9332 b4bd
00000120: 83d8 633c f1d5 333d d50a 6cbd 63ac 7a3d
00000130: 7e6f 813c 0fed a639 21f2 70bd b65f 8d3c
00000140: 631f 233e 502e 0dbd 8718 993f a444 403f
00000150: 1b7c 6cbd 945e 203f 699d 43bc eb93 6bbf
00000160: 72aa ffbe 043b b23c 86b5 b5bd bd01 07bd
00000170: c696 e53c dc07 aebd fac8 4f3c eb0b 99bf
00000180: 9fbf 443f 10a9 173c c77d f9be 542e e03e
00000190: b420 b13e 14ed d03e 2517 363f f45e 8c3c
000001a0: 7fed 583e 2b27 cebd fe77 b3bf 7dc8 eebd
000001b0: 14b5 e33e f0de 04bf a9dc c4bd 50dc 0b3f
000001c0: be1b 4b3f fc69 033f 6359 88bd af35 64be
000001d0: b523 b5bb 6213 c4bd 63bb 49bf ab4e b9bd
000001e0: 0b00 143f 677e 823d bdd8 d6be b71a 97bd
000001f0: 0c82 543f 3440 9aba 581c debd 1cd6 3e3f
0.95450515 -0.5443518 0.062462203 -0.014451501 -0.11729059 -0.032470774 0.028053518 -0.08904748
-0.04065945 -0.03017808 0.05931603 1.041708 -0.11179648 0.046580475 0.026442312 -0.9006213
-0.11183178 -0.50015914 -0.47223848 0.5822006 1.2073411 0.27111152 0.39518198 0.51046395
-0.029879007 -0.038439922 0.2578007 -0.0382098 0.06140754 1.0137804 -0.63734996 0.4874425
-0.04192347 -0.029758537 0.00062245276 -0.07381016 -0.54202044 -0.01614065 -1.0024503 -0.90407586
-0.5653637 0.9210409 0.37780055 0.014489964 -0.08542895 -1.4381829e-05 -0.045199048 -0.23154595
-0.099457346 0.5950872 -0.03920702 -0.00993935 -0.08888638 -0.0532088 -1.6146003 0.8344427
-0.02299562 -0.059382644 -0.093782276 -0.6487674 -0.10110698 -0.049907167 -0.016285157 -0.6585383
0.8646217 -0.07551495 -0.059024923 -0.076344155 -0.08543106 0.00802472 -0.055067647 -0.08798709
0.013906601 0.043905202 -0.057627518 0.061199557 0.015800234 0.0003183861 -0.058824662 0.017257553
0.15929942 -0.034467995 1.196061 0.7510474 -0.057735544 0.62644315 -0.011939385 -0.9202258
-0.49934727 0.021756656 -0.088725135 -0.032960642 0.028025996 -0.08497593 0.012682194 -1.1956762
0.7685489 0.009256616 -0.48728773 0.43785346 0.34595263 0.40805876 0.71129066 0.01713512
0.21184348 -0.100660644 -1.4020994 -0.11659334 0.4447409 -0.51902676 -0.096124 0.54633045
0.79339206 0.51333594 -0.06657674 -0.22286104 -0.0055279383 -0.095740095 -0.78801554 -0.09048208
0.57812566 0.063717656 -0.41962233 -0.07378142 0.83010936 -0.0011768402 -0.1084525 0.74545455

net.4.weight f4 [64, 128]
00000000: 86e0 b13d 649d 80be 5bfa 92bd 42ce 843d
00000010: 7746 a93c f781 d43b ac91 933d 74b9 2dbd
00000020: a96f aebc e3ec a13d 7a03 fb3c b4e2 40be
00000030: 419f 6b3d bee6 ac3d 26bf aebc c40d 2bc0
00000040: 96f1 603d 3698 9cbf 5619 37bd aa13 d6bc
00000050: 6c0b 2b3d 8dc5 22be 86cf 37bd f5c2 a1bb
00000060: c3ef 86bd d670 d3bc 040b 723c 3611 bfbd
00000070: 722c 94bd 8418 533e cd8a c3be c2ea 99bd
00000080: 46ef 253d 03f2 2c3d 838f f03e c2ac b03d
00000090: ec42 06be 9b86 503d 4903 1cc0 5788 e43e
000000a0: 61f8 7fbd f24a 9abc 9f64 093e f4e5 a13c
000000b0: acb8 95bd 3a29 873d 156f 223c d8f6 cabd
000000c0: c05a cb3c 459f b83c 6343 b73c c39f c03c
000000d0: 2233 4a3d 4109 c23b 5c13 aa3e 84f3 c53d
000000e0: a752 a3bd e839 0dbd b808 a63d e7ab bebd
000000f0: a272 b1bd 1d1a b43d 95e8 eebc 62b9 4840
00000100: 2bcc b03d 7f96 143d c2e6 fd3b 2f0e 83be
00000110: c44b 453c 51d7 fcbc 4f26 b43d cca7 173d
00000120: 137b 643d bc46 9fbc 7d3c 9ebc ec63 3a3d
00000130: 2b07 abbc f837 afbd 12e5 58bd 7ee8 77bd
00000140: 02e3 e7bd 19e5 8ebc 9bc5 723e 69fd 213d
00000150: 9629 a2bc 42cd 56bf b71c 813c 797b 883e
00000160: def2 8c3d 7fcc 8a3b dd8c e33c 9734 ad3c
00000170: 930e 37bc cd0c debc 8ca2 aabd 1d72 2abf
00000180: a568 583d 2541 9bbd a004 f5bd 68ec 1cbe
00000190: 8aff 41bd aa61 a83c 6066 423d 01c3 303d
000001a0: 45c3 853d a177 a83b ddb3 33bf 350f d23d
000001b0: 4482 a83d bfdf 1fbf 39ba acbd 8231 0abe
000001c0: d661 0239 099e 61be a19b c2bc 0da0 8240
000001d0: c8f5 a33d fb31 4d3d e2ed a9c0 9bbf 493c
000001e0: dd37 29bd 52ea 49bc 1974 7c3e 5237 df3d
000001f0: 0b0e 36bb 1090 99bd fe60 67be 8d7c 9d3d
00000200: 9811 92bd 3d56 823d e1a9 83bd 11aa 6abd
00000210: 80f7 7abd 1b51 9a3c cfeb bb3d 91ee 94bd
00000220: 0e20 1d3d 1302 4dbd 55f3 05bd 5f05 00bc
00000230: 7647 3fbd 9a59 553d 2063 1cbd 3cdc 303d
00000240: 4ff6 973d b62c aabd 2509 983c 8a72 5d3d
00000250: dead 9cbd ddeb 48bd b284 353d bdb0 3fbd
00000260: 70d0 623d 1475 f9bc 1900 e7bb 42fd 673d
00000270: e47c dfbc 8071 10bd 2f38 afbd a948 6e3d
00000280: 13bb 5dbd f00d a5bc 6490 5d3d 0852 98bd
00000290: 0767 d7bc 045f 5f3a 2148 bebd ef7c debc
000002a0: 3957 5bbd e45c 81bd a906 ecbc d523 88bd
000002b0: c3ab 393c 8885 063d e054 373d 736a 053c
000002c0: 20ba 823d 6319 bcbd 1e20 b73a 183f 9c3d
000002d0: bc95 b0bc 296b 123c d557 e53c a907 f83c
000002e0: 51b1 983d 8f97 383d 7898 0dbd e8e2 02bd
000002f0: 4cbe 903d b878 7e3d bd6d 9b3d ad30 72ba
00000300: f90a b4bd 3837 9abd 1e91 fb3c 2ebc 8fbd
00000310: a65e 703b 1585 7abc a7ca 5bbc 1376 c43c
00000320: 545c 77bd 459f 513d 5717 e23c afd7 aa3d
00000330: bf9f 0abb 343a a43d c345 eb3c ddd0 7cbc
00000340: e30a 5cbd bd45 92bd 23c0 44bd 9f4f adbd
00000350: 00c7 38bd 2846 56bd 911a 3c3d 69e1 313d
00000360: 9cb4 90bd cd51 273d 9f38 a7bc 4e56 5abd
00000370: e8a7 643d 69fa 293d 60b0 1b3d 76f0 cebb
00000380: ac85 a9bd 196e a5bd 38a8 a2bd b856 5d3c
00000390: 3c9f a6bd dc81 17bd ef6b 68bd 73e6 a73d
000003a0: 5f44 843d 1cfe 9dbc c53e a0bd 6c45 d83c
000003b0: ad67 1f3c 25e2 313d a57a a73d ba32 5f3d
000003c0: 994a adbd 46d8 abbd 7e2c e53c e2a3 28bd
000003d0: 3d7d b4bd 100c 3e3d c27c 5e3d b117 8b3d
000003e0: 04a9 b8bd 8267 9d3d 343f 823d fced 5a3c
000003f0: aea0 ba3c 6508 763d 55e5 f03c ef74 8cbc
0.086854026 -0.2512008 -0.07176658 0.06484653 0.020663483 0.0064852196 0.07205519 -0.04241319
-0.021293478 0.07906511 0.030641306 -0.1883648 0.057524923 0.08442448 -0.021331381 -2.6727152
0.054917894 -1.2233951 -0.044701897 -0.026132423 0.04175894 -0.15895672 -0.044875644 -0.004936571
-0.065887 -0.02581064 0.014773134 -0.093294546 -0.0723504 0.2061482 -0.38191834 -0.075154796
0.040511392 0.042222988 0.4698449 0.08626701 -0.13111466 0.05090962 -2.4377005 0.4463527
-0.062492732 -0.018834565 0.1341729 0.01976297 -0.07310614 0.0659966 0.009914179 -0.09910363
0.024823546 0.022536883 0.022371 0.02351368 0.04936517 0.0059215133 0.33217895 0.096655875
-0.07974749 -0.03447905 0.08107132 -0.093101315 -0.086644426 0.08794043 -0.029163638 3.1363149
0.08632692 0.036276337 0.0077484557 -0.2559676 0.01204199 -0.03086439 0.08796369 0.037025258
0.055781435 -0.019442908 -0.019315952 0.04550545 -0.020877441 -0.08555597 -0.052952833 -0.060524456
-0.11322595 -0.017443227 0.23708193 0.03954831 -0.01979522 -0.8390695 0.015760763 0.26656702
0.06882261 0.0042358036 0.02777713 0.02114324 -0.011172908 -0.027105713 -0.083317846 -0.66580373
0.05283417 -0.07580785 -0.11963773 -0.15324557 -0.04736284 0.020554382 0.047460914 0.04315472
0.06531385 0.005141214 -0.70196325 0.10256807 0.08227971 -0.62450784 -0.08433957 -0.13495448
0.00012434213 -0.22032942 -0.02375585 4.0820374 0.080058634 0.050096493 -5.3102884 0.012313749
-0.04131304 -0.012323933 0.24653663 0.108992234 -0.0027779366 -0.07498181 -0.22595593 0.07689772
-0.07132262 0.06364105 -0.06428886 -0.057291094 -0.06127119 0.018837502 0.09175836 -0.072720654
0.038360648 -0.050050806 -0.032702763 -0.007813781 -0.04669901 0.052087404 -0.03818047 0.043178782
0.074200265 -0.08309309 0.018559048 0.05406431 -0.0765035 -0.04905306 0.044316 -0.04679941
0.055374563 -0.030451335 -0.007049572 0.05663801 -0.027281232 -0.035264492 -0.08555638 0.058174763
-0.054133486 -0.020148247 0.05409278 -0.07437521 -0.026294244 0.00085209333 -0.09291101 -0.027159182
-0.05354998 -0.063165456 -0.02881177 -0.066474594 0.011332455 0.03284219 0.044758677 0.008143055
0.06383157 -0.0918453 0.0013971364 0.07629222 -0.021555774 0.008936682 0.027995983 0.03027709
0.074556954 0.045066413 -0.034569234 -0.031954676 0.07067546 0.062126845 0.0758929 -0.00092388206
-0.08791155 -0.075300634 0.030708846 -0.07018314 0.0036677509 -0.015290518 -0.013415015 0.023982083
-0.060390785 0.051177282 0.02759902 0.0834192 -0.0021152345 0.08018914 0.028719788 -0.015430656
-0.05372132 -0.07142208 -0.0480348 -0.08462452 -0.045111656 -0.052313 0.045923773 0.04342786
-0.070656985 0.040849496 -0.020412741 -0.053304963 0.05582419 0.041498575 0.03801 -0.0063152863
-0.08277449 -0.0807764 -0.079422414 0.013509445 -0.0813584 -0.036989078 -0.05674356 0.081982516
0.06458353 -0.019286208 -0.07824472 0.02640029 0.009729308 0.04342856 0.081776895 0.054491736
-0.08461494 -0.0839086 0.027975317 -0.041171916 -0.0881295 0.046398222 0.054318197 0.06791628
-0.09016612 0.07685758 0.06359711 0.013362404 0.022781696 0.0600666 0.029406229 -0.017145602

net.4.bias f4 [64]
00000000: 41f7 1fbe d7a7 a93d a986 aa3b bd62 b6bc
00000010: 411a 9abd a915 383e 9141 4ebe 2f7b f1bd
00000020: ed3c 91bd be32 a5be 3a4e 7cbd 2fbe 07be
00000030: 517e 05be 973e 5dbe b536 16be 098c 003f
00000040: 7c8c c0bd 273d 963e c6c8 b33e 1dc3 f83e
00000050: 9dfc b23e 8a91 f4bc fa32 323a a69b 023d
00000060: d361 fd3d 6aeb 03bd 9816 4dbe 1eba 84bd
00000070: 7f08 8d3b 6794 5e3d 5eab 78bd 1fdb a2bd
00000080: 512e b93c 09ca 6abd 4494 a2bb 515f b8bd
00000090: 442e d3bd 420f b93c a360 49bd f872 b33d
000000a0: 38c7 42be 66c1 d1bd e4e2 f73c 1439 763e
000000b0: df53 173d f527 e2bd 034b 9fbd 5c3a cabd
000000c0: 9c0e 1e3e 5cb7 3abf b67c cb3e 30bf 103f
000000d0: 2832 babe aff2 963d 6afa b6be 69c5 fc3c
000000e0: b8ca b0ba e574 11be f43f b3bc e4f1 dbbb
000000f0: b3d2 ea3c ffc4 00be 0609 babb 0d9f e2bb
-0.15621664 0.08283966 0.005204041 -0.022263879 -0.07524539 0.17977013 -0.20142199 -0.117910735
-0.07091699 -0.32265276 -0.06159804 -0.13256143 -0.13036467 -0.21605907 -0.14669307 0.50213677
-0.09401795 0.2934353 0.35114115 0.4858636 0.34958354 -0.029854555 0.0006797757 0.03188672
0.12372174 -0.03220693 -0.2002815 -0.064808115 0.0043039913 0.054340746 -0.060710303 -0.0795195
0.022605093 -0.057321582 -0.0049615223 -0.09002555 -0.10311559 0.022590283 -0.049164426 0.08762163
-0.19021308 -0.10241966 0.030259557 0.24045211 0.03694522 -0.110427774 -0.07777979 -0.098744124
0.1543526 -0.72936034 0.39743584 0.5654173 -0.3636639 0.07370507 -0.35737926 0.030855851
-0.0013488149 -0.14204748 -0.021881081 -0.006712185 0.028664922 -0.12575148 -0.005677345 -0.006915933

net.6.weight f4 [1, 64]
00000000: 5171 a63f e8fc 943d 5224 00bc 9865 4e3f
00000010: 434a ebbe b825 96bf 361a 31c0 cdc4 aa3c
00000020: 457f f8be 3542 a13e bac7 8abe 7947 1ebc
00000030: 7780 30bd 786e 8fbe 1592 383d a365 2340
00000040: 28e6 d93e 78ff 7abf d357 00bf cc44 99be
00000050: ea63 26bf d994 c8bf d75e e23e c273 803e
00000060: 8d43 3dbf 3198 b03d 55ec 823e efe6 2b3d
00000070: dba1 d5bc 84ce 923f 7c26 b4bc 0c10 8f3d
00000080: 08c3 89bb 249d e53d 83ca 133f be14 abbd
00000090: 3976 12bf 20d9 92bc 8e73 3c3d 9a76 cc3f
000000a0: 899a 5f3e 4c4a 093d dcdd 573b 8f0a 4cbf
000000b0: ede4 0ebd 0b81 67bf 84d1 9b3c 7918 ec3c
000000c0: b7d8 463e 4038 963f 8297 d3be 505b 25c0
000000d0: 768c 4a3f ef3e d83f f013 2c3f 43b2 00bf
000000e0: 1850 74be c84b 483c 333d 12bf 4f60 d4bc
000000f0: 4f30 a63b 4422 033f d82d 5f3d c606 50be
1.3003331 0.072748005 -0.007821159 0.8062377 -0.45955095 -1.1730261 -2.7672248 0.020845795
-0.485346 0.31495824 -0.27105504 -0.009660595 -0.043091264 -0.28013968 0.04506119 2.5530784
0.42558408 -0.98046064 -0.5013401 -0.299353 -0.64996207 -1.5670425 0.44212982 0.25088316
-0.739312 0.08622778 0.25570932 0.041968282 -0.026078155 1.1469274 -0.021991007 0.069854826
-0.0042041577 0.11211613 0.57730883 -0.08353566 -0.57211643 -0.017925799 0.04600864 1.5973694
0.21836294 0.03351812 0.0032938635 -0.7970361 -0.03488629 -0.9043128 0.019020803 0.028820263
0.19418608 1.1735916 -0.4132653 -2.5836983 0.79120576 1.6894206 0.6721792 -0.50272006
-0.23858678 0.012225099 -0.5712463 -0.02592483 0.005071677 0.5122416 0.05448708 -0.20315084
