prototyping/AntennaDesign/metaprototyping/Test3/s11_model_2.pt (torch, 667845 bytes, 9 tensors)

net.0.weight f4 [256, 4]
0	0xbef5e146	-0.48023432
1	0x3c1548c0	0.009111583
2	0xbdf2e9d0	-0.118610024
3	0x3e2664d4	0.162494
4	0x3eac6265	0.3366882
5	0xbe7bc311	-0.2458613
6	0xbe3dac14	-0.18522674
7	0x3ece035d	0.4023694
8	0x3eb961dc	0.36207473
9	0xbdbd1d03	-0.09234049
10	0x3eb97dba	0.36228734
11	0x3e1753be	0.14778039
12	0xbe5fa23b	-0.2183923
13	0x3e5bfc80	0.2148304
14	0x3d8cda52	0.06877579
15	0xbe32ca68	-0.17460024
16	0xbef94038	-0.48681808
17	0xbec97da6	-0.39353675
18	0x3eea3c88	0.45749307
19	0xbe86bc22	-0.2631541
20	0x3e858b95	0.26083055
21	0xbe3ef495	-0.18647988
22	0xbebe7e8b	-0.3720592
23	0xbf1663a3	-0.58745784
24	0xbea72e7e	-0.32652658
25	0xbefaf2c2	-0.49013335
26	0xbec45f94	-0.3835417
27	0x3ea2fc84	0.3183328
28	0xbb280c26	-0.0025642007
29	0xbe538bb9	-0.20658769
30	0xbdc0a65f	-0.09406733
31	0x3ec83e18	0.39109874
32	0xbec522de	-0.38503164
33	0xbeba8974	-0.36432993
34	0x3d77fcb0	0.060543716
35	0xbe33a08c	-0.17541713
36	0xbeac4e2d	-0.33653393
37	0x3e4966e0	0.1966815
38	0xbd8f316f	-0.069918506
39	0x3d8579c5	0.06517366
40	0xbd680b50	-0.056651413
41	0xbe4cc058	-0.19995248
42	0xbce7f5a0	-0.028315365
43	0xbe185e70	-0.14879775
44	0xbe9d03f8	-0.3066709
45	0xbe822d14	-0.25425017
46	0x3d9bbf80	0.07604885
47	0x3eb936fe	0.36174768
48	0x3ddb4ddd	0.107082106
49	0x3e2180a8	0.15771735
50	0xbe90d993	-0.28290996
51	0xbee2a31c	-0.44265068
52	0xbe7e0fad	-0.24810667
53	0x3e2d2e37	0.16912161
54	0xbea38ae6	-0.3194191
55	0x3d58b41d	0.052906144
56	0x3c4c5eb9	0.0124737555
57	0xbb71bd7d	-0.0036886625
58	0xbd3f54aa	-0.0467116
59	0x3daacf9d	0.0834038
60	0xbe9d4d40	-0.30723
61	0xbb360e00	-0.002777934
62	0x3e876afe	0.26448816
63	0xbed15708	-0.40886712
64	0xbe04e8dc	-0.12979454
65	0x3d75d41e	0.060016744
66	0x3eb31e64	0.34984124
67	0xbe51aaf0	-0.20475364
68	0xbebc9eec	-0.36839998
69	0x3e94ab40	0.29036903
70	0xbd138393	-0.03601415
71	0xbfdb9bf7	-1.7156972
72	0xbef3d5b2	-0.47623974
73	0xbeede750	-0.4646554
74	0xbea11064	-0.31457818
75	0x3e3ffe6c	0.18749398
76	0xbe8001a7	-0.2500126
77	0x3eb5cf03	0.355095
78	0x3d913ea8	0.07092029
79	0x3e725fef	0.23669408
80	0x3cd9adb0	0.026572078
81	0x3d83731d	0.064184405
82	0x3e81dba3	0.25362882
83	0x3b19fea6	0.002349773
84	0xbeacd2f4	-0.33754694
85	0xbef5c5f8	-0.480026
86	0xbec057cc	-0.37566984
87	0x3e922892	0.28546578
88	0x3d1168c5	0.035500307
89	0x3d90e6d5	0.07075278
90	0x3d520c15	0.051281054
91	0xbf6a0792	-0.914178
92	0x3d90987b	0.07060333
93	0xbd3c368a	-0.04595045
94	0x3ec0e3c7	0.3767378
95	0x3d710ed0	0.058852017
96	0xb9b60123	-0.00034714592
97	0x3e263409	0.16230787
98	0xbe4719e8	-0.19443476
99	0xbe944979	-0.28962305
100	0xbdbf76b2	-0.09348811
101	0x3e94e0e5	0.2907783
102	0x3f005f6e	0.50145614
103	0x3e807cb5	0.25095144
104	0xbe21ff18	-0.15819967
105	0xbe8c97ce	-0.27459568
106	0xbe5d8b98	-0.21635282
107	0x3c1a1580	0.00940454
108	0xbdcc2316	-0.099676296
109	0x3e263c73	0.16233997
110	0x3e41ca29	0.18924774
111	0xbe1e19da	-0.15439549
112	0x3e1f4bba	0.15556231
113	0xbd16bd9a	-0.036801912
114	0xbe5ca4e8	-0.21547282
115	0xbcfd7536	-0.03093968
116	0x3e40bfdf	0.18823193
117	0xbe371373	-0.17878513
118	0x3d756a7e	0.059916012
119	0x3e8c9ade	0.27461904
120	0xbef71930	-0.48261404
121	0xbebc6598	-0.3679626
122	0x3ec2f272	0.38075596
123	0x3e839a74	0.25703776
124	0x3c984403	0.018587118
125	0x3b0affb2	0.0021209535
126	0xbeb461ad	-0.3523077
127	0x3e0c70b5	0.1371487
128	0x3c9f4280	0.01944089
129	0xbebfc3e8	-0.37454152
130	0x3ef1b086	0.4720499
131	0xbdcec3c8	-0.10095936
132	0x3e2e8c46	0.17045698
133	0xbc899cbe	-0.016798373
134	0x3ee38e68	0.44444585
135	0xbeaa9dbe	-0.33323473
136	0x3bef6d80	0.0073067546
137	0xbeb5c65a	-0.35502893
138	0xbe9f1ec4	-0.3107816
139	0xbe6954f0	-0.22786307
140	0xbdba4388	-0.09094912
141	0xbe2d9fdc	-0.16955513
142	0x3d853790	0.06504738
143	0xbe5df50c	-0.21675509
144	0xbd3dd2de	-0.046343677
145	0x3e5b377e	0.21407887
146	0xbe26fecd	-0.16308136
147	0xbf31d297	-0.6946196
148	0xbe56442e	-0.20924446
149	0x3e8ded6c	0.277202
150	0x3e6ab2fc	0.2291984
151	0x3e28cdee	0.16484806
152	0xbee2faa4	-0.4433185
153	0xbef35c72	-0.47531468
154	0xbe054350	-0.13013959
155	0x3d82c8b0	0.06385934
156	0xbeda8178	-0.42676902
157	0x3ebf7b00	0.3739853
158	0xbda7a458	-0.08185643
159	0xbf29c0c7	-0.6630978
160	0x3e0239c0	0.12717342
161	0x3d2c2d03	0.042035114
162	0x3eb54cbf	0.35410115
163	0xbea6466b	-0.324756
164	0xbda38aa8	-0.07985431
165	0xbed089aa	-0.4073003
166	0xbead417c	-0.33839023
167	0xbddb4c00	-0.10707855
168	0xbde8e8c8	-0.113725245
169	0xbed03490	-0.40665102
170	0xbed02e0a	-0.40660125
171	0x3e29489c	0.16531605
172	0x3dd8764e	0.1056944
173	0xbdb5c370	-0.08875167
174	0xbeb20e9b	-0.34776768
175	0x3debffa1	0.11523367
176	0xbe32c0cf	-0.17456363
177	0x3eabe431	0.33572534
178	0x3e8e08fa	0.27741224
179	0xbda5af01	-0.0809002
180	0xbda6347b	-0.081154786
181	0x3e270c27	0.1631323
182	0x3f4cf68f	0.8006372
183	0xb8f706e0	-0.000117791584
184	0x3ca272d6	0.019830149
185	0x3d55e6e6	0.052222155
186	0xbd61339b	-0.054980855
187	0xbf230686	-0.6368183
188	0xbe34d4d2	-0.1765931
189	0x3df983e8	0.12183362
190	0xbd67e9a9	-0.05661932
191	0x3e12a164	0.14319378
192	0x3e00e180	0.12586021
193	0xbd28fe64	-0.04125823
194	0x3eb47238	0.35243392
195	0xbdd577fa	-0.10423274
196	0xbe214f36	-0.15752873
197	0x3e3fbf64	0.18725353
198	0x3c828872	0.015934203
199	0x3e7d97e6	0.24764976
200	0xbdac3e3a	-0.08410306
201	0x3d0b149c	0.0339552
202	0xbec7dd37	-0.3903596
203	0x3e0a37e9	0.1349789
204	0xbdf10be7	-0.11769848
205	0x3e5ca92e	0.21548912
206	0xbd29aaa9	-0.04142252
207	0xbe6c5d95	-0.23082574
208	0xbeaf0338	-0.34182143
209	0xbeaa831c	-0.33303154
210	0xbeb794a2	-0.35855585
211	0x3eb05bae	0.34444946
212	0x3e31d0d8	0.17364824
213	0xbf138498	-0.57624197
214	0x3e20aba5	0.15690477
215	0x3e262584	0.16225249
216	0xbe53ae01	-0.20671846
217	0x3e8b33d3	0.27187976
218	0x36c026d0	5.7265643e-06
219	0x3e583c2c	0.21116704
220	0xbd969f53	-0.073546074
221	0x3e19f668	0.15035403
222	0x3f1bcd83	0.6086046
223	0x3e5b560a	0.2141954
224	0xbecb4d94	-0.39707625
225	0xbe5e3ef0	-0.21703696
226	0xbec30cea	-0.3809579
227	0x3e91dcea	0.28488857
228	0x3eda69d9	0.4265888
229	0xbe8523ea	-0.26003963
230	0x3de189eb	0.11012634
231	0x3bd192fd	0.006395696
232	0xbcc22340	-0.02369845
233	0xbe80c024	-0.25146592
234	0xbd0a7880	-0.033806324
235	0xbe1741a8	-0.1477114
236	0xbf03d980	-0.51503754
237	0x3e0df4cf	0.13862918
238	0xbf2614c1	-0.6487542
239	0x3ea5f1ec	0.32411134
240	0xbe184bc8	-0.14872658
241	0xbe3a313c	-0.18182844
242	0x3e0300dc	0.12793297
243	0xbe741df8	-0.23839557
244	0x3e0cde97	0.13756786
245	0xbe864038	-0.2622087
246	0xbe6de788	-0.23232853
247	0xbee3ef74	-0.44518626
248	0xbf290f19	-0.6603866
249	0x3e0b937a	0.13630477
250	0x3b2d481b	0.0026440683
251	0x3ef2cb99	0.47420958
252	0xbee7f42c	-0.45303476
253	0xbb8cfd00	-0.004302621
254	0xbefd2800	-0.4944458
255	0xbe1600d0	-0.14648747

net.0.bias f4 [256]
0	0x3e4c2064	0.19934231
1	0xbf63fe92	-0.8906032
2	0xbfa6925f	-1.3013419
3	0x3fb47525	1.409825
4	0xbedf4fb4	-0.43615496
5	0x3f493837	0.786014
6	0x3eeba16c	0.46021593
7	0x3f6b4d83	0.9191515
8	0x3edeec4e	0.4353966
9	0x3f99b2d9	1.2007705
10	0x3eaf0a68	0.34187627
11	0xbea16740	-0.31524086
12	0x3faa40c1	1.3301011
13	0xbf5f4c23	-0.8722555
14	0x3f96c229	1.1778003
15	0xbe012714	-0.12612563
16	0xbe993d11	-0.29929402
17	0x3f0693f4	0.5256951
18	0x3eaf6786	0.3425867
19	0xbfb40433	-1.4063781
20	0xbf82447f	-1.0177153
21	0xbe4a7620	-0.19771624
22	0x3e2dd98e	0.16977522
23	0x3f061372	0.5237342
24	0xbfaea7f1	-1.3645002
25	0xbfb0cef0	-1.3813152
26	0xbde60230	-0.11230886
27	0x3fac885e	1.3479116
28	0xbfaf8316	-1.3711879
29	0xbf1b6369	-0.6069856
30	0xbefe3a30	-0.4965377
31	0xbfa72d96	-1.3060787
32	0x3d4ff0d0	0.050766766
33	0xbf8df693	-1.1090873
34	0x3ef864a8	0.48514295
35	0xbe8ba826	-0.27276725
36	0x3f1a7df8	0.60348463
37	0x3f920df7	1.1410512
38	0xbe26c4e0	-0.1628604
39	0x3f45c603	0.77255267
40	0x3f5b3e7e	0.8564223
41	0x3ea8683c	0.32892025
42	0xbe904b76	-0.28182572
43	0xbf93e9b5	-1.1555697
44	0xbfa453bc	-1.2838054
45	0xbf3019dc	-0.6878946
46	0x3fa8fce9	1.3202182
47	0xbf6b85c2	-0.92000973
48	0x3f6a5d26	0.91548383
49	0xbf8fbfe1	-1.1230432
50	0x3f96ae39	1.1771919
51	0x3f7a307b	0.97730225
52	0xbea978c4	-0.3309995
53	0x3e81d86d	0.25360432
54	0xbfa888ba	-1.3166726
55	0x3f6633fc	0.8992307
56	0xbe788bd4	-0.2427209
57	0xbf9a6c23	-1.2064251
58	0x3ea566d0	0.32305002
59	0x3f3d8e5d	0.74045354
60	0x3e35feb0	0.17772937
61	0xbdd961e7	-0.106143765
62	0x3f3cf040	0.7380409
63	0xbe1b4124	-0.15161568
64	0xbbc0a2dd	-0.00587879
65	0xbec1bb02	-0.37837988
66	0x3fa53a46	1.2908409
67	0xbe865c26	-0.2624218
68	0x3fb9edb3	1.4525665
69	0xbf5fc3a9	-0.8740793
70	0xbea0ec5a	-0.31430322
71	0x3f838669	1.0275394
72	0xbf8361ce	-1.0264223
73	0x3d101597	0.03517684
74	0x3ecfdb90	0.405972
75	0x3f375d83	0.7162706
76	0x3eca8a3a	0.39558583
77	0x3e3a973f	0.18221758
78	0x3d5892e0	0.052874446
79	0xbe1d29d4	-0.15347987
80	0x3f75431f	0.95805544
81	0xbd871f9e	-0.065978274
82	0xbf8e3830	-1.1110897
83	0xbd9d103b	-0.07669111
84	0x3f9f6930	1.2453976
85	0x3fb33b0a	1.4002392
86	0x3ed33322	0.4124995
87	0x3e04a188	0.12952244
88	0x3fc7aa59	1.5598861
89	0xbf4ffb20	-0.8124256
90	0x3f8c54a2	1.0963328
91	0x3f280b9d	0.6564272
92	0xbe2599e4	-0.16171986
93	0x3e615fa9	0.22009148
94	0x3f0d85fe	0.5528258
95	0x3f9466fe	1.1593931
96	0x3f146a39	0.5797458
97	0xbf5ee6f0	-0.8707113
98	0xbedceb7c	-0.4314841
99	0xbfa30fd7	-1.2739209
100	0xbfb5697f	-1.417282
101	0xbf5aff49	-0.85545784
102	0x3ef8883e	0.48541445
103	0xbe2c30e8	-0.16815531
104	0x3e87baba	0.2650965
105	0xbf5fdfdb	-0.8745095
106	0x3e23f6c4	0.16012102
107	0x3f84a7dd	1.0363728
108	0x3e505334	0.2034424
109	0xbf9f0c8d	-1.2425705
110	0x3eca8e74	0.39561808
111	0xbfa1fcd5	-1.2655283
112	0xbf8d2b4b	-1.1028837
113	0x3f5bd923	0.858782
114	0x3ed3eb26	0.41390342
115	0x3fa3f18b	1.2808088
116	0xbed9af20	-0.42516422
117	0x3e1fb35c	0.15595764
118	0x3d656880	0.056007862
119	0x3f0bab88	0.5455861
120	0x3e7c3193	0.24628286
121	0x3f22487a	0.6339184
122	0x3e480308	0.19532406
123	0xbe9c2574	-0.30497324
124	0x3dce79ab	0.100818
125	0x3f53db0d	0.8275612
126	0xbea48188	-0.32130075
127	0xbee6c6aa	-0.45073444
128	0xbe7efd94	-0.2490142
129	0x3dcaa9a8	0.098956406
130	0xbf8e4fe1	-1.1118127
131	0x3f85a09d	1.043964
132	0x3ec9f586	0.39445132
133	0x3dce34d0	0.10068667
134	0xbeacd01a	-0.3375252
135	0x3de764e0	0.11298537
136	0xbf9b7b01	-1.2146913
137	0x3f9def3e	1.2338636
138	0x3f8b0564	1.086102
139	0xbe974240	-0.29542732
140	0xbfb6d161	-1.4282647
141	0x3f61d574	0.8821633
142	0x3f3d454c	0.73933864
143	0x3f760fb5	0.9611772
144	0xbeef5124	-0.46741593
145	0xbf8f5313	-1.1197227
146	0x3db6a2f0	0.089177966
147	0xbedea1eb	-0.4348291
148	0xbfb76706	-1.4328315
149	0x3e8fa02e	0.28051895
150	0x3f97889d	1.1838566
151	0x3fc19368	1.512311
152	0xbe501f19	-0.20324363
153	0x3f46a2c1	0.7759209
154	0xbd377220	-0.044786572
155	0x3d975750	0.073897004
156	0xbf6c7b45	-0.92375594
157	0xbe4ddfc7	-0.20104896
158	0x3fb7fc44	1.437386
159	0xbeba9328	-0.36440396
160	0xbf4ebf55	-0.807607
161	0x3f2513f8	0.64483595
162	0x3f734665	0.9502929
163	0x3eb88cc2	0.3604489
164	0x3d78a266	0.06070175
165	0xbcb3ea60	-0.021962345
166	0xbfa277af	-1.2692775
167	0x3f895a8f	1.0730761
168	0xbfac9fa0	-1.3486214
169	0x3e9c0720	0.30474186
170	0xbf98645c	-1.1905627
171	0x3f638943	0.8888132
172	0xbf93e696	-1.1554744
173	0x3ecc84f0	0.39945173
174	0x3f98d306	1.1939399
175	0xbeba82f2	-0.36428028
176	0x3f0066d4	0.50156903
177	0xbf7d6c6d	-0.9899357
178	0xbd669dc0	-0.056302786
179	0x3dcb7d28	0.09935981
180	0xbf8113fa	-1.0084221
181	0x3f6e81a0	0.9316654
182	0xbe3e8ef4	-0.1860922
183	0xbf8ff226	-1.1245773
184	0x3eb970e4	0.3621894
185	0x3f4e5972	0.8060523
186	0x3eb6a7b0	0.3567481
187	0xbe3d8a50	-0.18509793
188	0xbe6218e4	-0.22079808
189	0x3f84f55b	1.0387377
190	0x3f9afe0a	1.2108777
191	0x3e32e083	0.17468457
192	0xbec6900e	-0.3878178
193	0xbfb60e60	-1.4223137
194	0xbf808d9b	-1.0043215
195	0x3f361601	0.71127325
196	0xbf8be4c1	-1.0929185
197	0x3e8cab44	0.27474415
198	0xbf743056	-0.95386255
199	0xbecb1986	-0.3966791
200	0xbf7942a7	-0.9736733
201	0xbf97e32f	-1.1866206
202	0x3ea8c138	0.32959914
203	0xbef730ce	-0.48279423
204	0x3ec9b661	0.39396957
205	0xbfac8660	-1.3478508
206	0xbe5435b8	-0.20723617
207	0xbf17a499	-0.5923553
208	0xbf2081f3	-0.62698287
209	0x3fa26526	1.2687118
210	0xbfbe0345	-1.4844748
211	0x3e60d5a4	0.21956497
212	0x3e7ac1a6	0.24487934
213	0xbfa6c4e9	-1.3028842
214	0xbe512a40	-0.20426273
215	0x3ede6fe7	0.4344475
216	0xbefd77aa	-0.4950536
217	0xbd4c9110	-0.04994303
218	0xbe318930	-0.17337489
219	0xbf7109be	-0.9415549
220	0xbfb768b7	-1.4328831
221	0x3f944a24	1.1585126
222	0xbedd1526	-0.43180197
223	0xbf9d4974	-1.2288041
224	0xbcd9a4a0	-0.026567757
225	0x3e388cc0	0.18022442
226	0x3e07e630	0.13271403
227	0xbba90897	-0.0051584947
228	0xbfbdec2d	-1.48377
229	0x3f50bdbf	0.8153953
230	0xbfb5a31b	-1.4190401
231	0x3d0aca90	0.033884585
232	0xbcd81080	-0.026375055
233	0x3e98075e	0.2969312
234	0x3e0a6a4e	0.13517115
235	0x3f66066c	0.8985355
236	0xbe9b64f0	-0.30350447
237	0xbd98a6a1	-0.07453657
238	0xbfbf54dc	-1.4947772
239	0x3fa25325	1.2681624
240	0x3f804efe	1.0024107
241	0x3f941457	1.1568707
242	0xbf9bd3c0	-1.2173996
243	0x3e85eabe	0.26155657
244	0x3e9c05a6	0.3047306
245	0x3f8a9ba2	1.0828745
246	0xbf5a21a9	-0.8520761
247	0x3fa71956	1.3054607
248	0x3eeadafe	0.45870203
249	0xbdad2ad8	-0.084554374
250	0xbf860cd3	-1.0472664
251	0xbda9ebe8	-0.08296949
252	0xbd812988	-0.063067496
253	0xbf963ef4	-1.1737962
254	0xbfb40e60	-1.4066887
255	0x3dd8ec08	0.105918944

net.2.weight f4 [256, 256]
0	0x3c7f7cf0	0.015593752
1	0x3e2cbf45	0.16869839
2	0x3d95358c	0.07285604
3	0xbef9dfd1	-0.4880357
4	0x3cd7e6b0	0.026355118
5	0xbea6ccd8	-0.32578158
6	0x3d5c0398	0.053714365
7	0x3f360f97	0.7111754
8	0x3cfbbb64	0.030729003
9	0xbf0fe67a	-0.56211054
10	0x3d277444	0.040882364
11	0xbc84b39c	-0.016198926
12	0xbd2957a1	-0.041343335
13	0x3f0d2c59	0.55145794
14	0xbe183f87	-0.14867984
15	0xb9b91400	-0.0003530085
16	0x3b827eea	0.0039824145
17	0xbe0cfe15	-0.137688
18	0xbc0eb5b0	-0.00871031
19	0x3e23f1ef	0.16010259
20	0x3e362bce	0.17790148
21	0xbd5d4444	-0.05402018
22	0xbffeb431	-1.989874
23	0xbd5c1178	-0.053727597
24	0x3dda2ce5	0.10653094
25	0x39bc1292	0.0003587199
26	0xbd66a13e	-0.056306116
27	0xbeeaf13f	-0.4588718
28	0x3e658f6a	0.2241799
29	0x3dcce68c	0.10004911
30	0xbc3aecc0	-0.011408985
31	0x3eb17786	0.34661502
32	0xbbfba790	-0.007679887
33	0x3f2678b0	0.65027905
34	0x3c77cc00	0.015124321
35	0xbc1df458	-0.009640776
36	0xbd5d7733	-0.054068755
37	0xbd8166ba	-0.06318422
38	0x3c2ad790	0.010427371
39	0xbdc1ed53	-0.09469094
40	0xbdc73aa3	-0.09727981
41	0xbd51135c	-0.051043853
42	0x3bdd4770	0.006752901
43	0x3e9076f5	0.28215757
44	0x3bda90a3	0.006670074
45	0x3c899a34	0.016797163
46	0xbf07e62c	-0.5308559
47	0x3f090dd0	0.535367
48	0xbdec4008	-0.115356505
49	0x3e345325	0.17609842
50	0x3cf3ba07	0.02975179
51	0xbcd740d0	-0.026276022
52	0xbaed4780	-0.0018102974
53	0x3df3af22	0.11898638
54	0x3de1146d	0.10990224
55	0xbe8e1406	-0.27749652
56	0xbcb9030c	-0.02258446
57	0x3e00971e	0.12557647
58	0x3c99f4f4	0.01879356
59	0xbf268280	-0.6504288
60	0x3d09b368	0.03361836
61	0xba7f0a80	-0.00097290426
62	0xbca7e5c3	-0.020495301
63	0xbb253e00	-0.0025213957
64	0xbe6175f3	-0.2201765
65	0xbfad86f4	-1.355681
66	0xbe4b0266	-0.19825134
67	0xbd21d47e	-0.03950929
68	0xbef60cb6	-0.48056573
69	0x3f403953	0.7508747
70	0x3c0d5210	0.008625522
71	0xbe60f0d1	-0.21966864
72	0x3e1f9f36	0.15588078
73	0xbe5bda37	-0.21469961
74	0xbbf237c0	-0.0073919
75	0xbd6bac42	-0.057537325
76	0x3d6bcb4a	0.05756692
77	0x3f856a4e	1.0423067
78	0x3d2f6df6	0.042829476
79	0x3c2e1708	0.010625608
80	0xbe662a5f	-0.22477101
81	0xbe036769	-0.12832417
82	0x3bb04ed7	0.005380492
83	0xbffb35b3	-1.9625763
84	0xbd972a94	-0.07381168
85	0xbed449cb	-0.4146255
86	0xbd668c76	-0.056286298
87	0x3c996fe0	0.018730104
88	0xbf45c018	-0.77246237
89	0xbe8761d1	-0.26441815
90	0xbdd3aa6b	-0.10335239
91	0x3e23cc37	0.1599587
92	0xbc155d88	-0.009116538
93	0xbe05075e	-0.12991092
94	0xbf050321	-0.519579
95	0xbded2b30	-0.11580503
96	0xbf414fc3	-0.7551233
97	0x3e5c6969	0.21524586
98	0x3cf1ba0c	0.02950766
99	0x3dbbe91a	0.0917532
100	0x3d851e1f	0.06499886
101	0xbecbe6d0	-0.39824533
102	0xbdc3171f	-0.095258944
103	0xbd1deed0	-0.038557827
104	0xbd76f9b2	-0.06029672
105	0xbf4f0b38	-0.80876493
106	0x3af0de80	0.0018376857
107	0xbef5f43f	-0.48037907
108	0x3d13fcae	0.036129646
109	0x3d88d3dc	0.06681034
110	0x3d20a136	0.039216243
111	0x3e424f9a	0.18975678
112	0xbdad7950	-0.08470404
113	0xbda27765	-0.07932929
114	0xbd50ff42	-0.051024683
115	0xbe5299b3	-0.20566444
116	0xbd316910	-0.043313086
117	0x3d0f2d0e	0.034955077
118	0xbd37b4fc	-0.044850335
119	0xbc81c2ff	-0.015840052
120	0xbf2e5a9c	-0.6810701
121	0x3e273e90	0.1633246
122	0x3babd0c0	0.005243391
123	0xbd265bf2	-0.04061503
124	0x3cf2e5c4	0.029650576
125	0xbfc9b92f	-1.5759639
126	0x3ccd9528	0.025095537
127	0x3d01ccf4	0.0316896
128	0x3d48a6d0	0.04898721
129	0xbcb3a42c	-0.02192887
130	0x3f009072	0.50220406
131	0x3bbb8156	0.005722205
132	0xbd14adf6	-0.036298715
133	0xbcb0cd14	-0.021582164
134	0xc016c298	-2.355627
135	0x3d276f0e	0.040877394
136	0xbd31196d	-0.04323714
137	0xbd9cedf6	-0.07662575
138	0xbe03daee	-0.12876484
139	0x3cda2674	0.026629664
140	0xbea942df	-0.3305883
141	0xbed399c3	-0.41328248
142	0x3f379723	0.7171499
143	0xbdb0cd57	-0.086329155
144	0x3d185ab6	0.037195884
145	0x3e29428a	0.16529289
146	0x3ceb9694	0.028758325
147	0xbecbc335	-0.3979737
148	0x3e361377	0.17780863
149	0xbd173cea	-0.036923327
150	0xbe4d0b04	-0.20023733
151	0xbf11cb7a	-0.56951106
152	0xbdcf6a4e	-0.10127698
153	0xbe5d9dca	-0.21642223
154	0x3d17a848	0.03702572
155	0xbd729cc2	-0.059231527
156	0x3dc48c3a	0.095970586
157	0xc00f5701	-2.2396853
158	0xc02e320a	-2.7218041
159	0x3d7fd5ea	0.062459864
160	0x3de39b89	0.1111365
161	0xbf6855fa	-0.9075619
162	0xbe28c8a0	-0.16482782
163	0x3b936400	0.004498005
164	0x3d94ab38	0.0725922
165	0x3cc25e8c	0.023726724
166	0x3dbee2f0	0.09320629
167	0xbf3c5160	-0.7356167
168	0x3e80a87a	0.25128537
169	0x3b4a2480	0.003084451
170	0x3e89f9e9	0.2694848
171	0xbdf3b112	-0.11899008
172	0x3e822e10	0.25425768
173	0x3d53d248	0.05171421
174	0xbe184bd5	-0.14872678
175	0x3cba48b8	0.022739753
176	0x3e30f616	0.17281374
177	0x3dea77a7	0.11448603
178	0xbeae5dcf	-0.34055945
179	0xbc529a28	-0.0128541365
180	0x3dc2c4d3	0.095101975
181	0xbeacfb37	-0.33785412
182	0x3b107e80	0.0022048056
183	0x3e8a7789	0.27044323
184	0x3d07e110	0.03317362
185	0xbd51b162	-0.051194556
186	0x3b3e7ec0	0.0029067248
187	0x3cd9daf0	0.026593655
188	0x3b48f1a0	0.0030661598
189	0xbfca2ae8	-1.5794344
190	0xbea343ce	-0.31887668
191	0xbe01fe42	-0.12694648
192	0xbd70780e	-0.058708243
193	0x3dfc2775	0.12312213
194	0xbc4633f0	-0.012097344
195	0xbda4e250	-0.08050978
196	0x3e53e52d	0.20692892
197	0xbc906c98	-0.017629907
198	0x3db1fbf9	0.08690638
199	0x3c49eac0	0.012324035
200	0x3e40a1a8	0.18811667
201	0x3e2ca29c	0.16858906
202	0xbefe56b9	-0.4967554
203	0xbf2a0bf1	-0.6642447
204	0x3b70cd80	0.0036743581
205	0xbc98d8a1	-0.018657984
206	0x3cdcefe8	0.026969865
207	0xbdb6989f	-0.08915829
208	0x3d64ab63	0.05582751
209	0xbd2a6cad	-0.041607548
210	0x3d6d7f6d	0.05798285
211	0xbc015f90	-0.007896319
212	0x38845cd9	6.311545e-05
213	0x3dc6d519	0.09708614
214	0x3d4505d2	0.048101254
215	0xbcff16ea	-0.031138856
216	0xbcbff7a0	-0.023433506
217	0xbc9e5524	-0.019327708
218	0x3cae1e98	0.021254823
219	0x3da70fbd	0.08157299
220	0xbbce6a8f	-0.006299324
221	0xbcaebb2f	-0.02132949
222	0xbe72fd19	-0.23729362
223	0x3e041afe	0.12900922
224	0x3d69a792	0.057044573
225	0x3cb7d628	0.022440985
226	0x3d76fbb2	0.06029863
227	0xbb2b7980	-0.002616495
228	0x3d073074	0.033005193
229	0xbdbf9a04	-0.09355548
230	0x3d53034b	0.051516812
231	0xbd3f147a	-0.046650387
232	0x3cb5d630	0.02219686
233	0x3c39fa68	0.011351205
234	0xbf8c14c7	-1.0943841
235	0xbe4cb66e	-0.19991466
236	0xbd4d7a86	-0.050165676
237	0xbe263f88	-0.16235173
238	0x3deebcf6	0.11657135
239	0xbfd0eaeb	-1.6321691
240	0x3ec8bfd7	0.39208862
241	0xbdb228bb	-0.08699175
242	0x3dd03a25	0.1016734
243	0xbc86e160	-0.016464889
244	0x3d6edbe2	0.058315165
245	0xbfeb0ca9	-1.8363239
246	0x3dd96e47	0.10616737
247	0xbce83f37	-0.028350456
248	0xbb9d3b60	-0.004798338
249	0x3cf96240	0.030442357
250	0x3e9bdf9e	0.30444044
251	0x3d162aaa	0.03666178
252	0xbbdbd8a0	-0.0067091733
253	0x3d6f8356	0.05847486
254	0x3dda75b3	0.106669806
255	0x3d063384	0.032763973

net.2.bias f4 [256]
0	0xbf5fcb89	-0.87419945
1	0x3d7767c0	0.060401678
2	0xbc8b3e22	-0.0169974
3	0xbf187177	-0.59548134
4	0x3c139f2d	0.009010118
5	0x3f82a013	1.0205101
6	0x3f372a10	0.7154856
7	0x3f64d118	0.8938155
8	0xbb7f8221	-0.0038987475
9	0x3be013c3	0.0068382933
10	0x3f860d05	1.0472723
11	0xbd917592	-0.07102503
12	0x3df399b0	0.11894548
13	0xbf1d330f	-0.61406034
14	0xbc0b23ba	-0.008492405
15	0xbd17d7fa	-0.037071206
16	0xbead9abb	-0.33907112
17	0x3ea370fb	0.31922135
18	0xbd8bff76	-0.06835835
19	0xbf500d71	-0.8127051
20	0x3bdd2541	0.006748826
21	0xbd73c6a5	-0.059515614
22	0x3f9a954c	1.2076812
23	0x3f8a1048	1.0786219
24	0xbd85e095	-0.06536976
25	0xbd3e39b9	-0.046441767
26	0x3f739a5e	0.9515742
27	0x3f98915b	1.1919359
28	0xbf2a3050	-0.6647997
29	0xbf62d196	-0.8860105
30	0xbf3bdc44	-0.73382974
31	0xbd745c8a	-0.059658565
32	0xbbf79188	-0.0075551905
33	0xbd07e423	-0.033176553
34	0xbe9003d5	-0.28127924
35	0x3bb48003	0.0055084242
36	0x3bd5d66d	0.0065258057
37	0xbf3a7baa	-0.72844946
38	0xbca6e040	-0.020370603
39	0xbcd08fb3	-0.025459146
40	0x3d08fd8c	0.033444926
41	0x3ada67ad	0.0016662978
42	0xbf53b8ac	-0.8270366
43	0x3c0ec6c2	0.00871438
44	0xbcf909b6	-0.030400138
45	0xbd57484e	-0.05255919
46	0xbd5b2fe1	-0.053512458
47	0x3c01c32b	0.007920067
48	0xbecd92dc	-0.40151107
49	0xbca3ab76	-0.01997922
50	0xb9b644fc	-0.00034765142
51	0xbc86f14b	-0.01647248
52	0xbd504699	-0.050848577
53	0xbf8a4349	-1.0801784
54	0xbd9a6dd8	-0.07540482
55	0x3e5f860e	0.21828482
56	0xbc94cfcd	-0.018165493
57	0x3ca60f22	0.020270888
58	0xbcbc7c7d	-0.02300858
59	0xbd5b1e39	-0.05349562
60	0xbd2035a5	-0.03911366
61	0xbc172eb4	-0.0092274435
62	0xbf53a7eb	-0.826781
63	0xbd2ca7c2	-0.042152174
64	0xbb002ea3	-0.0019559048
65	0xbd83bd7a	-0.06432624
66	0xbc8f2e33	-0.017478084
67	0x3f5e1b65	0.8676055
68	0xbc1214c7	-0.0089160865
69	0xbd90c7ab	-0.07069334
70	0xbe1f2502	-0.15541461
71	0xbcce2cc4	-0.02516783
72	0xbc8cdde6	-0.017195653
73	0x3cecee24	0.028922148
74	0xbc9c9494	-0.019113816
75	0xbec80874	-0.3906895
76	0xbd8e603a	-0.069519475
77	0xbd967c6e	-0.07347952
78	0xbf14a789	-0.5806814
79	0x3d4fd0c0	0.05073619
80	0xbdb26ef0	-0.08712566
81	0x3bde3592	0.0067812884
82	0xbd1c56cd	-0.038168717
83	0xbf2c9975	-0.67421657
84	0xbce42103	-0.027847772
85	0xbb315dfa	-0.002706407
86	0xbe589856	-0.21151862
87	0x3c1a8ae4	0.009432528
88	0x3bf5b8cd	0.0074988366
89	0xbcdc478a	-0.026889581
90	0xbc9c2786	-0.019061815
91	0x3d1d29f3	0.038370084
92	0x3c978322	0.018495146
93	0xbd7fe340	-0.062472582
94	0xbd0a53ff	-0.03377151
95	0x3d0e65f8	0.034765214
96	0xbdb246a5	-0.087048806
97	0xbc74fece	-0.014953328
98	0x3ca9272a	0.020648558
99	0x3dc4efed	0.09616075
100	0x3e33d861	0.17563011
101	0x3cc95c6a	0.0245802
102	0xbf7129fb	-0.9420468
103	0x3f6d73d0	0.9275484
104	0xbf69346a	-0.910956
105	0x3f9ab3ea	1.2086155
106	0xbd4396e6	-0.04775133
107	0xbd2c02a1	-0.041994695
108	0x3e05d476	0.13069329
109	0x3c6ecd63	0.014575335
110	0x3c54686e	0.012964351
111	0x3cd903a2	0.02649099
112	0xbd672b73	-0.05643792
113	0x3c7a4c9f	0.015277057
114	0x3f0683b8	0.52544737
115	0xbf14b262	-0.5808469
116	0xbc4c362d	-0.012464088
117	0x3c694fd5	0.014240225
118	0xbef1d5df	-0.47233483
119	0xbf308f3a	-0.68968546
120	0x3cb4892b	0.022038063
121	0xbd4ab412	-0.049488135
122	0xbd048184	-0.03235008
123	0x3cc71b86	0.024305116
124	0xbd0f35b6	-0.034963332
125	0xbc1d4b32	-0.0096004475
126	0xbc6f5d05	-0.01460958
127	0x3d074980	0.03302908
128	0xbd031b73	-0.0320086
129	0xbf50cc80	-0.8156204
130	0x3f78228d	0.9692772
131	0x3c8d5863	0.01725406
132	0x3dc77745	0.09739546
133	0xbf5f41e4	-0.87209916
134	0xbd30ea5a	-0.043192245
135	0xbf0afdca	-0.542935
136	0xbee7c6c6	-0.4526884
137	0xbd86f615	-0.06589905
138	0xbf4fdce5	-0.81196433
139	0xbf4a2559	-0.7896324
140	0x3f68c22c	0.9092128
141	0xbb9e8212	-0.004837283
142	0xb9b9dbfe	-0.00035449857
143	0xbf66da5e	-0.9017695
144	0xbebfe807	-0.3748171
145	0xbdcebb78	-0.100943506
146	0xbcf04ec8	-0.02933444
147	0xbe0d9dc1	-0.1382971
148	0xbc914b11	-0.01773599
149	0x3f946318	1.1592741
150	0xbdba2218	-0.09088534
151	0x3cc9aa10	0.024617225
152	0xbd17634d	-0.036959935
153	0xbd8a4183	-0.067507766
154	0xbd822093	-0.06353869
155	0x3c1d3d97	0.009597204
156	0xbf869665	-1.0514647
157	0x3cbd6271	0.02311823
158	0xbdba9f55	-0.091124214
159	0xbc0c4238	-0.00856071
160	0xbe0a6b7f	-0.13517569
161	0xba270d90	-0.00063725654
162	0xbbbf56f2	-0.005839222
163	0xbdb2c6c9	-0.087293215
164	0x3f430268	0.76175547
165	0x3c565d5f	0.013083785
166	0xbe295821	-0.16537525
167	0x3b58b300	0.0033065677
168	0xbf29da4a	-0.6634871
169	0xbd7f1789	-0.062278304
170	0xbeb12412	-0.34597832
171	0x3c82a9b9	0.01595007
172	0xbd0fd4e1	-0.035115127
173	0xbef904b4	-0.486364
174	0xbd4f78b7	-0.050652232
175	0xbd7cc46e	-0.061710767
176	0xbd0e74c8	-0.03477934
177	0x3c9cceb7	0.019141538
178	0x3d58bfec	0.052917406
179	0x3d1753c9	0.036945138
180	0xbf79b309	-0.9753881
181	0xbda17f27	-0.078855805
182	0xbc954475	-0.01822112
183	0xbd336d9e	-0.04380571
184	0x3b355294	0.0027667629
185	0xbf716a3d	-0.9430273
186	0xbf07ec48	-0.5309491
187	0x3f6a5c3e	0.91547
188	0xbdad77ba	-0.08470102
189	0x3eafc7bf	0.34332082
190	0xbd5e1614	-0.054220274
191	0x3d7043d6	0.058658443
192	0xbd728292	-0.059206553
193	0x3f6fe36f	0.9370641
194	0x3d4e9850	0.050438225
195	0xbc4906a1	-0.012269647
196	0x3cb0b378	0.021569952
197	0xbf499463	-0.78742045
198	0xbe169fe4	-0.14709431
199	0xbc2a6da8	-0.010402121
200	0xbf50788c	-0.8143394
201	0x3c63488c	0.013872277
202	0x3ce29ab4	0.027661659
203	0xbc9d0a16	-0.019169848
204	0xbc9e1e45	-0.019301543
205	0x3f6078a0	0.8768406
206	0x3f7a600c	0.97802806
207	0xbf855700	-1.0417175
208	0x3b9a490e	0.004708416
209	0xbc6e896f	-0.014559134
210	0xbed3d6bc	-0.41374767
211	0xbbe5a8cb	-0.007008647
212	0x3e16e6d4	0.14736491
213	0x3cd50f04	0.026008137
214	0xbd31a742	-0.0433724
215	0x3d60202c	0.05471818
216	0xbd36aac4	-0.04459645
217	0x3f5405f5	0.8282159
218	0xbf75d5dd	-0.96029454
219	0x3f8fc57d	1.1232144
220	0x3f5d42a9	0.8642984
221	0xbf778d32	-0.9669982
222	0xbd758d52	-0.059949227
223	0xbe3996db	-0.18123953
224	0x3d4a41e4	0.049379244
225	0x3f90d406	1.1314704
226	0xbd9cae42	-0.076504245
227	0x3d6ed16b	0.058305185
228	0xbe47b227	-0.19501553
229	0x3cee2896	0.029072087
230	0xbd84f933	-0.064928435
231	0xbe6429c4	-0.22281557
232	0xbd47b276	-0.048754178
233	0xbc9fc710	-0.0195041
234	0x3c69c7d9	0.014268839
235	0x3e57121c	0.21003002
236	0xbd1ea0b4	-0.038727477
237	0x3f6341ac	0.8877208
238	0xbd1eebe8	-0.038799196
239	0xbf24a2e4	-0.6431105
240	0xbcd78420	-0.02630812
241	0xbc71504f	-0.01472862
242	0xbd06123d	-0.032732237
243	0xbf143f26	-0.57908857
244	0xbf760b8d	-0.96111375
245	0xbf8595c1	-1.0436326
246	0x3f7a2738	0.97716093
247	0x3c619ad9	0.013769829
248	0x3bb3502d	0.005472204
249	0xbdaeafe1	-0.0852964
250	0xbcd5c905	-0.02609683
251	0xbca5943c	-0.020212285
252	0x3f835e55	1.0263163
253	0xbf75c10a	-0.9599768
254	0xbdbca5da	-0.09211321
255	0x3f95078e	1.164293

net.4.weight f4 [256, 256]
0	0xbc6a100e	-0.014286054
1	0x3d6ee3f4	0.05832286
2	0xbb6fdce0	-0.0036600158
3	0xbd2fe7de	-0.042945735
4	0x3cd7338f	0.026269702
5	0xbc9f5b13	-0.019452607
6	0xbd231416	-0.039814077
7	0x3c879818	0.016552016
8	0xbc885ab8	-0.01664482
9	0x3d4b3244	0.049608484
10	0x3b75bc81	0.003749639
11	0xbd456cac	-0.04819934
12	0xbda6a46f	-0.08136832
13	0xbd68673f	-0.05673909
14	0x3aa11c23	0.0012291711
15	0x3cf4f0cc	0.029899977
16	0xbcf1e8cd	-0.029529953
17	0x3cf92b92	0.030416284
18	0xbd267898	-0.04064235
19	0x3bb26752	0.0054444456
20	0xbd320136	-0.043458186
21	0xbc57a825	-0.013162647
22	0xbd85ec85	-0.06539253
23	0xbcca827a	-0.02472042
24	0x3c66e7c0	0.014093339
25	0xbc199e9e	-0.009376196
26	0xbd8d560d	-0.069011785
27	0xbcaa98e7	-0.020824863
28	0x3cb2e4df	0.02183765
29	0x3b192ed4	0.002337386
30	0xbd0308ff	-0.031991
31	0xbd42e4b6	-0.047581397
32	0x3ca8a658	0.020587131
33	0x3d1337b8	0.03594181
34	0x3cb8cf8a	0.0225599
35	0xbd00baa6	-0.031428
36	0xbd11b0ac	-0.035568878
37	0xbd5eb3ee	-0.054370813
38	0x3b0c0f00	0.0021371245
39	0x3d3b5a8a	0.04574064
40	0x3d246ffd	0.040145863
41	0x3d616b48	0.055033952
42	0xbc223147	-0.009899444
43	0xbc1f7318	-0.00973203
44	0x3d18d764	0.037314788
45	0xbc0e5bd0	-0.008688882
46	0xbcd266a0	-0.025683701
47	0xbcc7eb88	-0.024404302
48	0x3be0f959	0.006865662
49	0xbc535778	-0.012899272
50	0xbd59d5ae	-0.053182296
51	0x3b866c90	0.004102297
52	0x3bb20900	0.005433202
53	0x3c941635	0.018076995
54	0x3b7beec0	0.0038441867
55	0xbd58a1cd	-0.05288868
56	0x3d7db916	0.06194409
57	0x3cb8b82c	0.022548757
58	0xbc965c94	-0.018354692
59	0xbc94e568	-0.018175796
60	0xbd008882	-0.031380184
61	0xbd0b616c	-0.034028456
62	0xbd78cad2	-0.0607403
63	0xbca48cc4	-0.020086654
64	0x3d6c113e	0.05763363
65	0xbd027892	-0.031853266
66	0xbd40d3c4	-0.047076955
67	0x3c1e363a	0.009656483
68	0x3d3f7942	0.0467465
69	0xbd663885	-0.056206245
70	0xbd106baf	-0.035258945
71	0xbc34c138	-0.011032395
72	0x3d4e6825	0.05039229
73	0x3d5291d0	0.05140859
74	0x3d30f87a	0.043205716
75	0x3d09744c	0.033558175
76	0x3c1a21b8	0.009407453
77	0xbd703738	-0.05864641
78	0xbc9f9c68	-0.01948376
79	0x3d5f7788	0.054557353
80	0x3d3e0ad7	0.046397056
81	0xbcc996fb	-0.024608126
82	0xbd2c2457	-0.042026844
83	0x3d1102d4	0.035403088
84	0x3d3c5564	0.045979872
85	0x3cf356ef	0.02970454
86	0xbbd078c6	-0.0063620536
87	0x3cd29590	0.025706083
88	0x3d2cbd08	0.04217246
89	0x3d4dff70	0.050292432
90	0x3cc85a5a	0.024457145
91	0x3c80b154	0.015709557
92	0xbc121970	-0.008917198
93	0xbbc68d30	-0.0060593113
94	0xbbcc7930	-0.0062400326
95	0x3d48c9a4	0.049020424
96	0xbd18e5f4	-0.037328675
97	0xbb561fe0	-0.0032672808
98	0x3d3e911a	0.0465251
99	0x3c5abaf8	0.013350241
100	0xbd2388ea	-0.039925493
101	0x3d38f79a	0.045158006
102	0x3c0ad463	0.0084734885
103	0xbc62a70f	-0.013833775
104	0xbd29713c	-0.041367754
105	0xbd54532f	-0.051837143
106	0x3d78337c	0.060595974
107	0x3c81fb68	0.01586695
108	0x3d11f178	0.035630673
109	0x3c1cd970	0.0095733255
110	0xbd3a57e6	-0.045493983
111	0x3d7dfee2	0.062010653
112	0xbcebae8d	-0.028769756
113	0xbcff96cf	-0.03119984
114	0x3ccc7a5b	0.024960687
115	0xbcc483cd	-0.023988629
116	0xbd2f9a38	-0.042871684
117	0x3d43d3e7	0.047809508
118	0x3d1d9b80	0.038478374
119	0xbd7c428d	-0.061586905
120	0x3d13eb20	0.036112905
121	0x3c1c6cf8	0.009547465
122	0xbc34f4a0	-0.011044651
123	0x3c59a1c0	0.013283193
124	0x3c1f6820	0.009729415
125	0x3cf926fc	0.030414097
126	0xbd624910	-0.05524546
127	0x3d0c57c4	0.034263387
128	0xbce5a8b0	-0.028034538
129	0xbd9a50dc	-0.07534954
130	0xbd48f0ce	-0.049057774
131	0xbd69844a	-0.057010926
132	0xbd2aa5eb	-0.041662138
133	0x3cd89e84	0.026442774
134	0xbd04cc26	-0.032421254
135	0xbc9c637f	-0.019090412
136	0xbda877fd	-0.08226011
137	0x3d6fd69a	0.05855427
138	0x3bd5ff5b	0.006530685
139	0x3c9ecb80	0.019384146
140	0xb9b02000	-0.00033593178
141	0x3d39eaca	0.045389928
142	0x3d4e401a	0.0503541
143	0xba2c5f22	-0.0006575455
144	0xbcbfd5bb	-0.023417344
145	0xbd400e90	-0.046888888
146	0x3b5299a0	0.0032135025
147	0x3c91f85a	0.017818619
148	0xbc8da13d	-0.017288798
149	0xbd86a2d0	-0.06574023
150	0xbd235d99	-0.039884184
151	0xb9f858df	-0.0004736846
152	0xbc412c10	-0.0117902905
153	0x3d17e930	0.03708762
154	0xbc50ba90	-0.0127397925
155	0x3c8757d8	0.01652138
156	0xbcea2b50	-0.028585106
157	0x3bcb7dee	0.0062100803
158	0xbc1ca511	-0.009560839
159	0xbd97aa92	-0.074055806
160	0xbc2a2082	-0.010383727
161	0xbd6c13cc	-0.057636067
162	0xbd6b922e	-0.057512455
163	0x3cbe8d64	0.02326078
164	0x3c740db0	0.0148958415
165	0xbd4f6b0d	-0.0506392
166	0xbd8ccbfd	-0.06874845
167	0x3d2decf4	0.042462304
168	0xbcbc8969	-0.023014741
169	0xbd88fd90	-0.06688988
170	0x3d2b6092	0.041840144
171	0x3b52e2c0	0.003217861
172	0x3cd9dcf0	0.026594609
173	0xbd384eb5	-0.044996936
174	0x3ce16d10	0.027517825
175	0xbd28aa88	-0.041178256
176	0x3d77c32a	0.060488857
177	0x3d577e18	0.052610487
178	0x3d476c8c	0.048687503
179	0x3d5a9a6c	0.053369924
180	0x3d1277f8	0.035758942
181	0xbbb7ddb0	-0.005611144
182	0xba8bf0c0	-0.0010676607
183	0xbd490af2	-0.049082704
184	0xbd7b0352	-0.061282463
185	0xbce26468	-0.027635768
186	0xbd6c3245	-0.05766513
187	0xbba8f3e5	-0.0051560276
188	0x3d556eda	0.05210767
189	0x3c1e2ae0	0.009653777
190	0xbd5508a6	-0.0520102
191	0x3d07cc2b	0.033153694
192	0xbd343dba	-0.04400418
193	0xbdae54a7	-0.0851224
194	0x3d2b9edf	0.04189956
195	0xbb9371c0	-0.004499644
196	0xbd4a9466	-0.04945793
197	0x3c58cb12	0.0132320095
198	0xbd55125e	-0.05201947
199	0xbd28c3ac	-0.041202232
200	0xbd521329	-0.051287804
201	0xbc77ae20	-0.015117198
202	0x3cce16d0	0.025157362
203	0xbcbd1be8	-0.023084596
204	0xbd59c90a	-0.05317024
205	0xbd8517f0	-0.06498706
206	0x3d1b3461	0.03789175
207	0xbd7c5fee	-0.061614923
208	0x3cf46cc0	0.029837012
209	0xbd3aeeb2	-0.045637794
210	0xbc4a8a30	-0.012362048
211	0xbd89727b	-0.067112885
212	0xbce3b178	-0.027794585
213	0xbd230a21	-0.03980458
214	0xbae44248	-0.0017414773
215	0x3d576bbc	0.052592978
216	0x3d6d5d98	0.057950586
217	0xbd709fba	-0.058746077
218	0xbd7e9705	-0.062155742
219	0xbd4f8a90	-0.050669253
220	0x3d06b873	0.03289075
221	0xbce07bed	-0.027402842
222	0xbcae6e8c	-0.021292947
223	0xbd746009	-0.0596619
224	0xbcb093c7	-0.02155484
225	0xbd440dcb	-0.047864717
226	0xbcc048dc	-0.023472242
227	0xbc960272	-0.018311713
228	0xbb85c4f3	-0.004082316
229	0xbd50aec8	-0.050947934
230	0xbba45d90	-0.0050160363
231	0x3c232589	0.00995768
232	0xbaf74bfb	-0.0018867248
233	0xbc6a08a9	-0.014284291
234	0xbac79300	-0.0015226305
235	0x3bab13dc	0.0052208733
236	0x3c251d99	0.010077857
237	0xbd5078f9	-0.05089662
238	0x3cff814c	0.031189583
239	0xbd408f78	-0.047011822
240	0x3c053169	0.008129456
241	0xbd7b0edc	-0.061293468
242	0xbd5fc9e4	-0.054635897
243	0xbd99f21a	-0.0751688
244	0x3d1e24b8	0.038609236
245	0xbc77ee9c	-0.0151325725
246	0xbd8e7497	-0.069558315
247	0xbd29884a	-0.04138974
248	0x3c39f55b	0.011350001
249	0x3c9b73c0	0.018976092
250	0x3d4332cc	0.047655866
251	0x3d24c172	0.040223546
252	0xbd872f09	-0.06600768
253	0xbd80d72e	-0.06291042
254	0xbccef603	-0.025263792
255	0x3ca474e3	0.020075267

net.4.bias f4 [256]
0	0xbc5014b5	-0.012700249
1	0xbf8745c5	-1.0568167
2	0xbdb69799	-0.08915634
3	0x3f1111c4	0.56667733
4	0x3d08d48c	0.033405825
5	0xbd1dadaa	-0.038495697
6	0x3cc054c2	0.023477916
7	0xbd0be427	-0.03415313
8	0xbcad940c	-0.021188758
9	0xbc907292	-0.017632756
10	0xbc8b108a	-0.01697566
11	0xbe54d55c	-0.20784515
12	0x3f403a2b	0.7508876
13	0xbeb3f4e4	-0.35147774
14	0xbc89e754	-0.016833939
15	0xbe4df2c2	-0.20112136
16	0xbd8b77f2	-0.06809987
17	0xbd463f5c	-0.048400268
18	0xbdab2da3	-0.08358314
19	0xbd5ce952	-0.05393345
20	0xbdabb84a	-0.0838476
21	0xbf181f34	-0.5942261
22	0xbca7a6e6	-0.020465326
23	0x3e947cdd	0.29001513
24	0xbd97020a	-0.07373436
25	0xbdcf4559	-0.10120649
26	0x3f08d39c	0.5344789
27	0xbdc37860	-0.09544444
28	0xbf737491	-0.9509974
29	0xbd558271	-0.05212635
30	0x3eb6349e	0.3558702
31	0xbde0fc9c	-0.109856814
32	0x3f37b1c6	0.71755636
33	0xbf720396	-0.9453672
34	0x3ec9085a	0.39264184
35	0x3c434937	0.011919311
36	0xbddf65c0	-0.10908079
37	0xbd8c0985	-0.06837753
38	0xbdb437ef	-0.08799731
39	0x3e86b4ad	0.2630972
40	0xbd717726	-0.05895152
41	0xbc2cecb8	-0.010554485
42	0x3f22f1fe	0.636505
43	0xbe23d7e8	-0.1600033
44	0x3d6c4566	0.05768337
45	0xbdcc3fdc	-0.09973118
46	0xbf44cf70	-0.76879025
47	0x3f0f421c	0.5596025
48	0x3f981cfd	1.1883847
49	0x3f0a5c4f	0.540471
50	0x3b666e3c	0.003516092
51	0x3ce4fd3b	0.027952781
52	0xbcdab2f7	-0.026696665
53	0xbd56a5e8	-0.052404314
54	0x3e87e2b3	0.26540145
55	0x3dfaa4f4	0.122384936
56	0x3f09c625	0.5381797
57	0x3f81161a	1.008487
58	0xbde9497d	-0.1139097
59	0xbe7da1b0	-0.2476871
60	0xbcbb0380	-0.022828817
61	0xbbc9a90e	-0.006154186
62	0xbf3d5f48	-0.7397351
63	0x3e5ee8b1	0.21768452
64	0xbdb3785b	-0.0876319
65	0x3f57c51e	0.8428515
66	0xbd370a34	-0.044687465
67	0x3bb204ca	0.0054327
68	0x3dee03a0	0.11621785
69	0x3c40bab9	0.011763268
70	0xbf5e1d23	-0.8676321
71	0xbf822e51	-1.0170385
72	0xbd930309	-0.07178313
73	0x3ea296b1	0.31755593
74	0x3f07ab3b	0.5299565
75	0xbcb6d0f0	-0.022316426
76	0x3ce9f57b	0.028559437
77	0xbd95025b	-0.0727584
78	0x3f0c31f6	0.54763734
79	0x3d6990d3	0.05702288
80	0xbd0667ad	-0.032813717
81	0xbd50b2e1	-0.050951842
82	0xbd6d13c2	-0.05788017
83	0x3f3ba130	0.7329283
84	0x3c1c9552	0.009557085
85	0xbd330b49	-0.043711934
86	0xbf8b18df	-1.0866965
87	0xbcaa5b9e	-0.02079564
88	0xbd94daae	-0.07268272
89	0x3eb42da4	0.3519107
90	0xbcfb2dd4	-0.030661501
91	0xbaf75991	-0.0018871297
92	0x3de59546	0.11210112
93	0xbd889b57	-0.06670254
94	0xbc17c557	-0.009263358
95	0xbef72108	-0.48267388
96	0x3c4631a5	0.012096797
97	0xbd6dc762	-0.058051474
98	0x3e83a3cf	0.25710914
99	0xbcfea67c	-0.031085245
100	0xbf29722e	-0.6618985
101	0xbd08acbd	-0.03336786
102	0xbd3620a7	-0.044464733
103	0xbc4126bc	-0.01178902
104	0xbf1fa2da	-0.62357867
105	0x3c925112	0.017860923
106	0xbd3df37e	-0.04637479
107	0xbc4a4547	-0.012345619
108	0xbc8838dd	-0.016628677
109	0x3d09e806	0.03366854
110	0x3f0f1db1	0.5590468
111	0x3ce2acc8	0.02767028
112	0x3f3446f7	0.70420784
113	0x3c142bd7	0.009043655
114	0x3e061741	0.13094808
115	0x3b54d585	0.00324759
116	0xbdad5134	-0.08462754
117	0x3e462de8	0.1935345
118	0xbc644533	-0.013932514
119	0x3c047094	0.008083481
120	0xbf5bbd13	-0.8583538
121	0xbd924b7b	-0.07143303
122	0x3f201085	0.62525207
123	0xbca436bf	-0.020045636
124	0xbcf5a57a	-0.029986132
125	0x3df55824	0.11979702
126	0xbbf6babd	-0.007529585
127	0xbda280ea	-0.07934745
128	0xbc39667a	-0.011315936
129	0x3c9a3682	0.01882482
130	0xbd59573b	-0.053061705
131	0x3d7a5727	0.06111827
132	0xbd8d3320	-0.06894517
133	0xbf634752	-0.887807
134	0xbdb22580	-0.08698559
135	0xbd8d809c	-0.06909296
136	0xbd1aa88b	-0.03775839
137	0x3c160d2e	0.009158416
138	0xbd58b1e5	-0.05290403
139	0x3e9b69cc	0.30354154
140	0x3f13818e	0.5761956
141	0x3d1688df	0.036751624
142	0x3e05ffdc	0.13085884
143	0x3e8e9c41	0.27853587
144	0x3eea63d0	0.45779276
145	0x3c83a245	0.016068587
146	0x3f287882	0.6580888
147	0x3ee1dc25	0.4411327
148	0x3e878800	0.26470947
149	0x3ed4269f	0.41435716
150	0xbd13e639	-0.03610823
151	0x3ebb0845	0.36529747
152	0xbc038bb9	-0.008028918
153	0xbc900128	-0.017578676
154	0xbd93e9df	-0.07222342
155	0xbcea8fd6	-0.02863304
156	0xbc6be26c	-0.014397245
157	0xbd7d5794	-0.0618511
158	0x3f00ff04	0.5038912
159	0xbd83583c	-0.06413314
160	0xbf865181	-1.0493623
161	0xbd8ded19	-0.069299884
162	0xbe21f8d6	-0.1581758
163	0xbccd63ab	-0.02507194
164	0x3ea89f04	0.3293382
165	0xbc7281a5	-0.0148014175
166	0x3f1ca797	0.6119322
167	0x3dc65009	0.09683234
168	0xbda8bf8d	-0.082396604
169	0x3effef89	0.49987438
170	0x3f1be886	0.6090168
171	0x3ce0eaa5	0.027455637
172	0xbf0cadba	-0.54952586
173	0xb77d8c51	-1.5112645e-05
174	0xbd959362	-0.07303502
175	0x3d7cd8e7	0.06173029
176	0x3cfbea5d	0.030751402
177	0xbd6ef607	-0.0583401
178	0xbd185f04	-0.03719999
179	0x3ca3d864	0.020000644
180	0xbecd9057	-0.40149185
181	0x3d3e67ba	0.04648564
182	0x3e7fa5ed	0.2496564
183	0x3efece7c	0.4976691
184	0xbd746632	-0.059667774
185	0xbd82a6af	-0.063794486
186	0x3ce6e999	0.02818756
187	0xbd33b9a8	-0.043878227
188	0x3f1657c8	0.58727694
189	0x3cd15ff4	0.02555845
190	0xbc8cc3dd	-0.017183239
191	0xbf197cab	-0.59955853
192	0x3edb0aa7	0.42781565
193	0x3f19e2bf	0.6011161
194	0x3ec68803	0.38775644
195	0xbc22e1e5	-0.009941553
196	0xbd7e8e72	-0.062147565
197	0x3e975f7d	0.2956504
198	0xbd4998c1	-0.049217943
199	0x3e63e50b	0.22255342
200	0x3e6d781c	0.2319035
201	0x3f5b80ef	0.8574361
202	0x3d8b05d6	0.067882225
203	0xbd27dd9c	-0.040982828
204	0xbcbf754b	-0.02337136
205	0x3b22174b	0.0024733122
206	0xbd845f85	-0.064635314
207	0xbd3ac1a4	-0.045594826
208	0xbc715040	-0.014728606
209	0x3ed12a38	0.40852523
210	0xbe3bb43a	-0.1833047
211	0xbe36a040	-0.17834568
212	0x3c947f40	0.018127084
213	0xbe22645a	-0.15858594
214	0x3bdb1916	0.00668634
215	0x3c5eead8	0.013605796
216	0xbd1cca51	-0.03827888
217	0x3b02eef5	0.0019978855
218	0xbd9108cc	-0.07081756
219	0xbdea44f8	-0.11438936
220	0x3f6f4af6	0.93473756
221	0x3f461371	0.77373415
222	0xbc8156b5	-0.015788415
223	0xbdabfd53	-0.08397927
224	0xbd5ecc6f	-0.05439418
225	0xbef31d1c	-0.47483146
226	0x3c84ab26	0.016194891
227	0x3ce399a3	0.02778322
228	0x3ef96c40	0.487154
229	0x3c3ec900	0.011644602
230	0xbb0ac423	-0.0021174036
231	0x3d6b2fe5	0.057418723
232	0x3e8acbaa	0.27108508
233	0xbcfbd536	-0.030741315
234	0x3f19a8ea	0.6002337
235	0x3ce6ceb3	0.028174734
236	0xbb333a17	-0.0027347857
237	0xbcb4a26a	-0.022050101
238	0x3f260b5e	0.64861095
239	0xbd8917f3	-0.06694021
240	0xbb38545a	-0.002812645
241	0x3e8fd8a4	0.2809497
242	0xbbb337d4	-0.0054693017
243	0xbcf83e53	-0.030303156
244	0x3caeef83	0.021354442
245	0x3c023ef2	0.007949578
246	0xbf3efbdc	-0.74603057
247	0xbd2cb7af	-0.04216736
248	0x3ce56421	0.028001847
249	0xbc407de8	-0.011748768
250	0xbdac11bd	-0.08401821
251	0xbc878bca	-0.016546149
252	0xbf233cfd	-0.63764936
253	0x3ea0b3ff	0.31387326
254	0xbd5e041c	-0.054203138
255	0x3a2eaed6	0.0006663626

net.6.weight f4 [128, 256]
0	0xbcc93d14	-0.024565257
1	0xbd893c4e	-0.06700955
2	0x3be1a8a0	0.0068865567
3	0xbd7d7e08	-0.06188777
4	0xbd3c7950	-0.04601413
5	0xbd4bfac6	-0.049799703
6	0x3c183211	0.0092892805
7	0x3d6d9568	0.058003813
8	0x3d3251f8	0.043535203
9	0x3d10a7e6	0.03531637
10	0x3d383272	0.044969983
11	0xbd1ba3f8	-0.03799817
12	0xbd37f860	-0.044914603
13	0xbd2dba4a	-0.042413987
14	0xbd77de68	-0.060514838
15	0xbc3be0cc	-0.01146717
16	0x3d66dae2	0.056361087
17	0xbd091b44	-0.03347327
18	0x3ca87174	0.020561911
19	0xbbc74770	-0.006081514
20	0x3c9a4398	0.01883106
21	0xbd3198c3	-0.043358576
22	0x3c9176ad	0.017756784
23	0x3d3c207b	0.045929413
24	0xbd13162c	-0.035909817
25	0xbd20cfa4	-0.03926052
26	0xbcf44bf9	-0.029821383
27	0xba45a38a	-0.0007539323
28	0x3cb07d54	0.021544136
29	0xbc9de543	-0.01927436
30	0x3cd419d2	0.025891218
31	0x3b8bb3fb	0.0042633987
32	0xbd650ab0	-0.055918396
33	0xbcd44967	-0.025913907
34	0xbd9b26ef	-0.07575785
35	0xbd13bac0	-0.03606677
36	0xbd7789a5	-0.060434002
37	0x3d64df36	0.055876933
38	0x3bb9cef0	0.005670421
39	0xbdaa8934	-0.08326951
40	0x3c3a16e0	0.011357993
41	0xbc8861ec	-0.016648255
42	0xbd9c3520	-0.0762732
43	0xbd16da9e	-0.036829583
44	0xbd5b6de2	-0.05357159
45	0xbbcdba5e	-0.00627832
46	0x3ba8ac54	0.0051474962
47	0x3d1b9bca	0.03799037
48	0x3b63eb64	0.0034777755
49	0x3c1585bf	0.009126126
50	0x3d143fca	0.036193646
51	0xbc8e2fb0	-0.017356724
52	0xbca253a8	-0.019815281
53	0xbce5976e	-0.028026309
54	0xbcb3df5c	-0.021957092
55	0xbda7fc7a	-0.08202453
56	0xbdab145b	-0.08353492
57	0xbc4253ad	-0.01186077
58	0xbd547680	-0.051870823
59	0xbd88a924	-0.06672886
60	0x3d0a5404	0.03377153
61	0xbd420ac2	-0.04737354
62	0x3cd801c1	0.026368024
63	0xbd7f13f0	-0.062274873
64	0xbd45daa1	-0.048304204
65	0xbd824d3b	-0.06362387
66	0xbcd6285e	-0.026142295
67	0xbd26a6f9	-0.04068658
68	0xbe2437ee	-0.1603696
69	0xbd18cf38	-0.037306994
70	0x3b7ab14f	0.0038252657
71	0x3c0ca8d3	0.008585173
72	0xbd396b24	-0.045268193
73	0xbd71f14b	-0.059068006
74	0xbd2b0add	-0.041758407
75	0x3c87b48c	0.016565584
76	0xbd3a13d8	-0.04542908
77	0x3d2a11f6	0.041521035
78	0xbe02dbe2	-0.12779191
79	0xbd289ec4	-0.041167036
80	0xbce2aa3c	-0.027669065
81	0x3d37d558	0.044881195
82	0x3cbfcfab	0.023414453
83	0xbc420a82	-0.011843326
84	0xbcabfab0	-0.02099356
85	0xbd296aec	-0.041361734
86	0xbd8681c5	-0.0656772
87	0x3cfa065a	0.030520607
88	0xbd39f4f0	-0.045399606
89	0xbd65d96f	-0.056115564
90	0xbcba0d08	-0.022711292
91	0x3c439750	0.011937931
92	0xbcf39511	-0.029734166
93	0xbd546140	-0.051850557
94	0xbbee8ef0	-0.007280223
95	0xbda9b1bd	-0.08285854
96	0x3c44f969	0.012022355
97	0xbd292108	-0.041291267
98	0x3d1b1830	0.037864864
99	0x3c272530	0.010201737
100	0xbdb697e3	-0.08915689
101	0xbbda8f27	-0.006669897
102	0xbc4b11a6	-0.012394344
103	0x3d74df70	0.0597834
104	0xbd07b3d4	-0.03313048
105	0xbd352244	-0.04422213
106	0x3d0f7ae0	0.035029292
107	0xbd3dff38	-0.046385974
108	0x3d7f88d4	0.06238635
109	0xbd13cc1b	-0.036083322
110	0x3c7674ae	0.015042467
111	0xbd1a3332	-0.03764648
112	0xbcade619	-0.021227883
113	0xbd1d4448	-0.038395196
114	0xbcfdc10d	-0.030975843
115	0xbcc61cb8	-0.024183616
116	0xbd4f9762	-0.05068148
117	0xbd540bb7	-0.051768985
118	0x3d1b095a	0.037850715
119	0xbdc48829	-0.09596283
120	0xbcc5275e	-0.024066623
121	0x3c9f7874	0.019466616
122	0xbd352c1c	-0.04423152
123	0xbae5cb54	-0.001753191
124	0xbbf5dd40	-0.0075031817
125	0xbded0018	-0.115722835
126	0x3c3562f2	0.011070954
127	0xbd401935	-0.04689904
128	0x3d0a6e64	0.033796683
129	0xbd328b32	-0.04358978
130	0xbd63db84	-0.05562927
131	0x3bfb5b2e	0.0076707816
132	0xbc869872	-0.016430113
133	0xbd0c7a15	-0.034296114
134	0x3d457824	0.04821028
135	0x3d6c65b8	0.057714194
136	0x3c0b2d50	0.00849469
137	0x3c0236ac	0.007947605
138	0x3a078780	0.00051700324
139	0xbc134e06	-0.00899077
140	0xbc329bcd	-0.010901404
141	0x3d5affb9	0.053466532
142	0xbd4c0976	-0.04981371
143	0x3d3125c4	0.043248907
144	0xbb8b935a	-0.004259509
145	0x3cf2ef2b	0.02965506
146	0xbdb7618b	-0.08954152
147	0xbd0f490d	-0.034981776
148	0xbcf019b2	-0.029309127
149	0xbc46d9c4	-0.01213688
150	0x3d54729f	0.051867124
151	0xbd9c9cdd	-0.07647107
152	0xbd587e40	-0.052854776
153	0xbcb2ba2b	-0.021817287
154	0x3c91983c	0.017772786
155	0x3d15300a	0.036422767
156	0xbd6c9c8f	-0.057766493
157	0x3cb82556	0.02247874
158	0xbd4042dd	-0.046938766
159	0x3d2afeb1	0.0417468
160	0xbd54ef78	-0.051986188
161	0xbc44fdae	-0.012023373
162	0x3c5f2bcb	0.013621281
163	0x3b8cb244	0.004293712
164	0xbdd5a174	-0.10431185
165	0x3c6054f8	0.013692133
166	0xbd4caf03	-0.04997159
167	0xbd68aa89	-0.05680326
168	0xbcdfe883	-0.02733255
169	0xbce27c3c	-0.02764713
170	0xbdbea161	-0.09308124
171	0x3d1f6050	0.03891021
172	0xbd4b1ba1	-0.049586896
173	0xbd58c66d	-0.05292361
174	0xbd17dd42	-0.037076242
175	0x3d03cf2c	0.032179996
176	0x3d1655ad	0.0367028
177	0xbd758f78	-0.059951276
178	0xbd7c741e	-0.061634175
179	0x3d4f5810	0.050621092
180	0xb79d06d3	-1.8719036e-05
181	0x3d259748	0.040427476
182	0xbd21f437	-0.039539542
183	0xbdd11736	-0.10209505
184	0xbda19879	-0.0789041
185	0x3ac8bcd4	0.0015315064
186	0x3d6734f8	0.056447
187	0x3d20cc46	0.03925731
188	0xbdb0dfe4	-0.08636454
189	0xbb213428	-0.0024597738
190	0x3d1cbe60	0.038267493
191	0xbc92d53a	-0.01792394
192	0xbdad5f39	-0.08465428
193	0xbd15bf08	-0.036559135
194	0xbda635fd	-0.08115766
195	0xbcd289f6	-0.02570055
196	0xbce085a0	-0.027407467
197	0xbd39ecfc	-0.04539202
198	0x3b5bae87	0.0033520774
199	0x3ce2ea42	0.027699593
200	0x3d82c8ad	0.06385932
201	0xbda11303	-0.07864954
202	0xbcde7c16	-0.027158778
203	0x3d3a8264	0.045534506
204	0xbd74e922	-0.059792645
205	0xbccd3c54	-0.02505318
206	0x3be10f70	0.0068682954
207	0xbc8a8c68	-0.016912654
208	0x3b1de380	0.00240919
209	0xbdd72e03	-0.10506823
210	0x3c037337	0.008023075
211	0x3d154a04	0.03644754
212	0x3d1e2f69	0.038619433
213	0xbc417f36	-0.011810115
214	0xbc85e2e8	-0.016343549
215	0xbb9d7970	-0.0048057362
216	0x3cfef3de	0.031122144
217	0x3c1f90c8	0.009739108
218	0x3d308c24	0.0431024
219	0xbd8d6221	-0.06903482
220	0x3c90fcdb	0.017698696
221	0xbd19d5f3	-0.037557553
222	0x3c04e39e	0.008110909
223	0x3cca6472	0.0247061
224	0xbc9d8f50	-0.019233376
225	0x3be1139d	0.006868793
226	0xbd2ec7f3	-0.042671155
227	0x3d269d3a	0.040677287
228	0xbd293a40	-0.041315317
229	0x3b82caf0	0.003991477
230	0xbd4a1128	-0.049332768
231	0xbd020356	-0.031741463
232	0xbde98b9e	-0.11403583
233	0xbd74cba4	-0.05976452
234	0xbd9137ae	-0.07090698
235	0xbd7fbe96	-0.062437616
236	0xbd0a0ac0	-0.03370166
237	0xbc409eb8	-0.0117565915
238	0xbd8a3434	-0.06748238
239	0x3b2eb100	0.0026655793
240	0xbcbb165c	-0.02283781
241	0xbd1df7e6	-0.038566492
242	0xb8946000	-7.075071e-05
243	0xbc5b7f8d	-0.01339711
244	0x3d748d48	0.05970505
245	0x3d5542b8	0.05206558
246	0xbdb2b771	-0.08726395
247	0x3ac86b60	0.0015290789
248	0x3d44988f	0.047997054
249	0xbd30799e	-0.043084733
250	0xbc25d328	-0.010121144
251	0x39004bad	0.00012235223
252	0xbdb3f3d6	-0.087867424
253	0x3c062f39	0.00818997
254	0xbd5011d0	-0.050798237
255	0xbd629914	-0.055321768
